cifar10/models/aux_pkt.model (torch_old, 236371 bytes, 22 tensors)

conv1.weight f4 [16, 3, 3, 3]
00000000: b965 263e 0d51 953d fa53 55be 1348 99be
00000010: f7d1 773e 7e1b 503e 8244 e53c d775 96be
00000020: e326 133d 4652 24bd d3d7 593e 86dd bcbe
00000030: f36e c3bd 6c34 a83e 1205 613e 7dbc f43d
00000040: dfd6 9abe 3788 bb3c c5f2 d53c e6a8 db3c
00000050: ae1b 11be fb62 68be f5e8 c53d a24c ed3d
00000060: 9a45 093e 17f4 76be 8897 fc3d 9155 f5bd
00000070: 916e bbbd 98e1 093e 1ae5 b1bd 50ca 053e
00000080: c72e a63b 40c5 233e 4267 2cbe c7c3 9fbb
00000090: 7e1c 833c b716 d7bd 279e 583e e878 b5be
000000a0: 5ce4 db3d 71b8 a13e 23e6 ffbd a3aa abbd
000000b0: 278b ce3d 1d18 92be af69 21bd beb7 953e
000000c0: 90f4 b6be ee80 cfbd 0a47 c13e 0a5c 28be
000000d0: a792 27be ead0 c33e 5170 06be f7eb 82bd
000000e0: cb87 bcbd 7007 37be 09aa 1bbe 8a78 193c
000000f0: 0cb6 96bd 78e5 14bd c4cd 9dbd 5d4a bd3e
00000100: 2ae3 193e 139a 863e 9723 8e3e fa83 ba3e
00000110: e892 073e dea7 7e3e d5e1 7a3e 7619 26bd
00000120: 9e32 6fbe c36b 14be 9fad 0ebe a629 c0be
00000130: 35c1 19be 0ae7 2cbe 2656 14be bcdc 67be
00000140: 6875 a23d f2e2 14be 6ec3 623e 8f6c 3bbe
00000150: ed98 c1bd 35fa b53e 61fd 6dbe e1ae d2bc
00000160: 3029 113e 239b 61bd 4a35 92bd 6484 ab3e
00000170: d14e 21be 0e1a 81be 1e8c 8f3e 3c45 ecbd
00000180: 1151 d0bd 3baf e73d 2480 2dbd 75a4 d0bd
00000190: 200e 083e 40e8 24bc 9741 02be 061f 833e
000001a0: 803f f9bd 6d7c ebbd c2eb 7f3e d7a2 30be
000001b0: cd0d a73d 3d13 42be b594 603d 47d4 083e
000001c0: ab14 9cbd 3bd3 febe 4ac2 313e d453 8dbe
000001d0: 61cd 12bf b34b 39be ab13 babd d5b6 39be
000001e0: a4e9 ecbb 5ab0 8e3b 7ef9 96be 74b4 413e
000001f0: 34f8 83be dd44 dfbe 737b 41be 499c 2d3d
00000200: d635 9e3e fa1a 513e 1efe 393e 1de2 e7bc
00000210: 4776 363d c78c 7ebc 0ea0 9bbe 1d45 77be
00000220: c87d 943e 615f b63c 6166 703e 5657 0f3e
00000230: de54 9dbe 5b8f 1f3e 7d93 adbe 40bf 523e
00000240: ffde aebd 183e 183d 00b3 a63d 7f38 5d3d
00000250: ab02 03bc a6cf 71be 4eca aabd 75c6 17be
00000260: 897d 443e dabe 9bbe d78a 983e 28ba 9fbc
00000270: d317 463e 4570 523e 7a09 4abe 23f4 713e
00000280: 3879 a3be b964 093e a120 3f3e 1d57 00bd
00000290: 3707 bcbb 3738 91bc 71e7 32be 67b4 083e
000002a0: 4aaa b7bd 8fd7 583c ec5f 6cbd dd1e 7dbc
000002b0: b98a 87be 4835 fe3d 4ae7 8cbe e239 f3bd
000002c0: 5c5d 2f3e 5373 dfbc 46bc c93e 0f12 123e
000002d0: 3f9f 73bd fb0b a1be 5cc4 2dbe ef70 d6be
000002e0: a1a1 30bb 081f bf3e 9b42 e63d 72b7 6e3e
000002f0: 30ba 0d3e 9ecf 883e 5559 173e cee4 363e
00000300: 908e fa3b 061c 08be 18d6 493e 5bd1 43be
00000310: 5c9b d7bd 3b6a 8ebe 8c83 d23e 6b84 9a3e
00000320: 9bb4 7c3d 3210 c13d c504 dbbd a1cf 41be
00000330: 8ce1 23be 9bc2 58be 7c28 bcbe 92e9 f73d
00000340: 9279 2d3e 161f 1a3e 084d 87bd 9d45 e73d
00000350: b000 65bd e3e0 48be 19bc a3bd aa6b e0bd
00000360: 75fc 93be a3bb f0be 22a4 b5be b430 093e
00000370: 1c02 c03d 7fb4 0b3c ab04 5e3e 1268 b53e
00000380: 8089 a73e 9630 bb3d acd6 073e e717 063d
00000390: 703f 05bd af77 843d 9816 163d 8300 dbbd
000003a0: 582b 0abe ec3b 94bd 2143 053e 0643 623e
000003b0: 6857 783e 7df5 49bd 27cb 97bd 4168 bf3b
000003c0: b385 91bd 3187 54be f261 65be 312b 1e3d
000003d0: edda b3bd 2424 173e 2f04 8a3e 6aa5 c6bc
000003e0: fc49 89be 91c3 8fbe dd87 883e ff77 1d3d
000003f0: 9147 75bc 871b 3cbe 0c30 cebc e9a4 223e
0.16249742 0.0729085 -0.20832816 -0.299378 0.24201189 0.20322987 0.027986769 -0.2938678
0.035925757 -0.040117525 0.21273737 -0.3688776 -0.09542646 0.32852495 0.2197459 0.11950014
-0.3024206 0.0228921 0.026116738 0.026813935 -0.14170715 -0.22694008 0.09663574 0.11586882
0.13405457 -0.2411655 0.1233359 -0.11979211 -0.09151948 0.13464963 -0.08686276 0.13065457
0.0050714943 0.15993214 -0.16836265 -0.0048756334 0.016004797 -0.105023794 0.2115408 -0.35443807
0.107369155 0.3158603 -0.12495067 -0.08382156 0.10085135 -0.28534022 -0.03940743 0.29241747
-0.3573346 -0.10132013 0.3774951 -0.1644136 -0.16364537 0.38245326 -0.13128783 -0.06392663
-0.09205588 -0.17873931 -0.15201582 0.009367118 -0.073589414 -0.03635165 -0.07705262 0.36970797
0.15028062 0.26289424 0.27761528 0.36428815 0.13239634 0.24868724 0.2450021 -0.040551625
-0.23359153 -0.14494233 -0.13933419 -0.37531775 -0.15015109 -0.1688501 -0.14485988 -0.22642797
0.0793255 -0.14539698 0.22144863 -0.1830313 -0.094529964 0.35542455 -0.23241188 -0.025718154
0.14175868 -0.05507959 -0.0713907 0.33499444 -0.15752722 -0.2521519 0.28036588 -0.11536643
-0.10171712 0.113127194 -0.042358533 -0.10187618 0.13286638 -0.010065138 -0.12720333 0.25609607
-0.12170315 -0.11498342 0.24992278 -0.17249618 0.08156929 -0.18952651 0.054829318 0.13362227
-0.076211296 -0.4977053 0.17359272 -0.27603018 -0.57344633 -0.18095283 -0.090857826 -0.18136151
-0.0072300006 0.004354519 -0.29487222 0.18916494 -0.257753 -0.43607226 -0.18894748 0.042385373
0.3090045 0.20420447 0.18163344 -0.028306061 0.04454639 -0.015536494 -0.3039555 -0.24147458
0.29002213 0.022262277 0.23476554 0.1399816 -0.3072881 0.1558203 -0.33901587 0.20580769
-0.08538627 0.037168592 0.0813961 0.054008957 -0.007996242 -0.23614368 -0.08339368 -0.14821799
0.19188513 -0.30419046 0.29793426 -0.019497946 0.19345026 0.2055064 -0.19730178 0.23628287
-0.3192842 0.13417329 0.1866479 -0.031333078 -0.0057381648 -0.017727 -0.174711 0.13350068
-0.08968027 0.013234987 -0.057708666 -0.015449253 -0.26473024 0.12412506 -0.2752021 -0.11876275
0.17125458 -0.02727667 0.39401454 0.14264701 -0.05947804 -0.31454453 -0.16969436 -0.41883036
-0.0026951807 0.37328362 0.11243173 0.23312166 0.13840556 0.267209 0.14780171 0.1786072
0.0076463893 -0.1329194 0.19710577 -0.19122832 -0.10527679 -0.27815422 0.41115987 0.30179152
0.061695676 0.09426917 -0.10694269 -0.1892686 -0.16004008 -0.21167986 -0.36749637 0.12105097
0.16940907 0.15050921 -0.066064894 0.112925746 -0.05590886 -0.19617037 -0.07994861 -0.10958035
-0.28903547 -0.47018155 -0.35476786 0.13397485 0.09375402 0.00852692 0.21681468 0.35430962
0.32722092 0.091401264 0.13265485 0.03273764 -0.0325312 0.0646814 0.03664264 -0.10693457
-0.13493097 -0.07237992 0.13013889 0.2209588 0.24252093 -0.04930638 -0.07411795 0.0058412855
-0.07105579 -0.20754696 -0.22400644 0.03861541 -0.08781991 0.1475988 0.26956317 -0.024248797
-0.26814258 -0.28078893 0.26666155 0.038444515 -0.014970676 -0.18369876 -0.025169395 0.1588322

conv1.bias f4 [16]
00000000: 7108 e93e 43de 84bd f0b1 9bbd 1738 23be
00000010: f3f1 0cbe 84fd 81be f4e3 4bbe f6d5 b6be
00000020: 9751 82bb be5d 7d3c 8884 40be bd72 0a3e
00000030: adaa 86be 4d9c 5bbe 54bb ee3d 13c1 27be
0.45514253 -0.064877056 -0.07602298 -0.15939365 -0.13764171 -0.2538873 -0.19911176 -0.35710114
-0.0039770114 0.015464244 -0.18800557 0.13520332 -0.2630209 -0.21446343 0.11656824 -0.16382246

conv1_bn.weight f4 [16]
00000000: 628f f13e 4cea 183f ac42 273f 3734 803f
00000010: a547 613f 586f d83e 7d1d 213f 9cc7 2a3f
00000020: a231 0a3f 5c30 323f 7209 e13e c9bb 263f
00000030: 2ba4 163f d7db 3e3f a44e 1a3f 2b7f 243f
0.47179705 0.5973251 0.6533611 1.0015935 0.87999946 0.4227245 0.6293562 0.6671083
0.53981984 0.6960504 0.4395252 0.6513029 0.5884425 0.745542 0.60276246 0.6425654

conv1_bn.bias f4 [16]
00000000: a137 d83c d744 57bc 0627 f93d 8cd1 9c3c
00000010: 827f b2be 0719 ca3d 8aa5 e43c aa91 96bb
00000020: fec4 27bd 8569 97bd e216 8a3e 1a93 12be
00000030: ff46 493e e98a 3f3c df1e c1bb 524b 003d
0.026393713 -0.013138971 0.12165646 0.019142888 -0.34862906 0.09868055 0.027910966 -0.004595001
-0.04095935 -0.07393173 0.26970583 -0.14313927 0.19655989 0.011690834 -0.0058935727 0.03132183

conv1_bn.running_mean f4 [16]
00000000: a2b9 ef3e e32a 80bd 3362 22bd 0e9c 0cbe
00000010: f90a 963e 486b 93be 4a8a 58be b212 a8be
00000020: a0da 59ba 495e c1bc 6c29 13be 7196 3e3e
00000030: 7c9d 9ebe c77d 44be 58a6 083e 0c54 23be
0.46821314 -0.0625818 -0.03964443 -0.13731405 0.29305246 -0.28792787 -0.21146503 -0.32826763
-0.0008310471 -0.023604529 -0.1437127 0.18612076 -0.30979526 -0.19188605 0.13344705 -0.1595003

conv1_bn.running_var f4 [16]
00000000: 2c3a f23d e5b7 893f 5937 b43e ffb6 c73e
00000010: 06d3 ab40 acfd e83d 058c 103f c07c d83f
00000020: c4b9 c53d 9c8a 013f 4f36 143e ad8a 473e
00000030: 1c5e 983f 8256 cb3e ee00 e93e a6ef aa3f
0.11827502 1.0759245 0.35198477 0.39006802 5.3695097 0.11376509 0.5646365 1.6913071
0.096545726 0.50602126 0.14473842 0.19486494 1.190372 0.39714438 0.45508522 1.3354385

conv2.weight f4 [32, 16, 3, 3]
00000000: 19fe 2cbc e971 8dbd f19a 41bd 65ac bcbd
00000010: 67df 03bf 859c 8ebe 795c 753d 71b7 35be
00000020: d14a 41be c254 bebd 5826 f93b 7591 bebd
00000030: 4665 113e 151f 78bd aaee 0b3e 5196 bb3d
00000040: b9bc 12bd 9432 1dbe 4dda c73e ce80 37bd
00000050: 4c71 b0bd 6802 28be 6805 8dbf 1b92 26bf
00000060: 2ef8 183e de29 c7be 0383 2cbd a561 12bc
00000070: 389a c23c 5aa3 9b3c f996 07be c7ae 2fbd
00000080: c6b4 cc3d ef91 643c 6efa 64bd 0373 843d
00000090: 3937 40be 4a05 04be 2d97 15bd 131d f7bc
000000a0: d550 d7bd 3191 613d 02ff 03bd f2f9 aa3c
000000b0: b09c 5b3d de06 83bd e12c 6abb 29a7 0c3d
000000c0: 74ed a23d 21e2 893e 4e67 893e 8c78 833d
000000d0: 8bab 463e bcd5 52bd 52c5 223d c5c8 b23c
000000e0: 0786 203d 5827 4c3c 51de 5ebe 842b b73c
000000f0: d628 7c3d 1c13 23bd fb9e 95bd 16ba 6c3d
00000100: aac8 cdbd 243b cebb 4f80 c8bc ac17 95be
00000110: 6c88 66be 6059 513d 8ea4 abbd 6983 5ebe
00000120: 49e9 e7bd 7fea ed3d 1cce d7bc 9fc5 06be
00000130: 652c c83d 1046 5dbd 84bf 1d3d c6ae 0ebd
00000140: 9cbe 103d d0fe dfbd 58fd f93c 66cb a43c
00000150: 1b04 39bd 8efa 563c f0b1 c93d 6b4c a93c
00000160: 0071 4a3d a84f e2bb 6dbe 1d3d 26bc ab3d
00000170: f4f4 533d c1a7 94bd 4a63 793c 9679 403d
00000180: 8211 69bd b6e5 fe3c 1892 11bd ce90 8cbe
00000190: 1543 783c 93d2 6bbd 0c50 06be ff93 f93e
000001a0: 2693 233e 7938 103e b931 fd3e 8cac 1c3e
000001b0: 3c79 523e ee01 0f3d edf7 9b3d fba5 eabd
000001c0: d077 2abe 71fc 1ebe 811a 46bd 6e3d e8bd
000001d0: d56b 18be 00a6 473e 160e 963d 5412 aebc
000001e0: 0ec0 28bc 5068 a5be 0e24 a33d de21 8d3c
000001f0: 5321 943a e9d1 00be 2312 7bbe 8dcf 03bd
00000200: 7f6f 3d3b 80bb 06be a09f 443e 2a5e a13e
00000210: 3b46 ab3d dea2 dc3d ddd2 8c3d 90cb 9b3c
00000220: 6eab 36bd 293b 06be d876 b03c 25cc 11be
00000230: 9661 c93b 7bb9 0b3d 2b4f 58bc f294 e1bc
00000240: 5345 9ebd 4ed6 0d3c 1b92 05bb 13a2 a0bd
00000250: 4518 10be 13ef 343d 9e63 bdbd 1edb acbe
00000260: bc87 b6bc 9f43 4abe 8e3a b3be 46e7 88bc
00000270: 13aa 50be 08dd 83bf 3f47 1dbd 28d7 a9be
00000280: 7e84 d3bf 3600 a5be 07ea 763d 5287 0f3c
00000290: 99d7 03be 13fd b43d 70b4 0d3d b500 6fbb
000002a0: d515 c93c 1a41 083d 2c51 953c c4f8 d43d
000002b0: 1a19 433e 5789 113d db68 193e aa3b 15be
000002c0: 47b7 f53d 49fd b43d 933c 50bf f9db 123e
000002d0: 04f7 da3d dc82 423d 9ce1 7a3e 3dbd 28be
000002e0: a265 a1be 2482 1e3d fe90 bbbd fa49 58be
000002f0: fef8 373e ae25 8bbe d418 1bbe 1640 c9bc
00000300: db62 52be 5061 b3be 2d71 2cbd 19fb 6dbe
00000310: 9af5 03bf 4d0b f9bd 8c50 7fbd de97 cabc
00000320: cba1 8fbc a68a a43d 3b2c ccbc 4aad cb3d
00000330: ce1c c53d ee58 a1bd c3f0 0e3e b877 ddbd
00000340: 0139 423d 5cda b43b 8678 25bd b2cc b0bc
00000350: da94 493d f046 ad3d 9c0e 4d3d dbf8 983c
00000360: 2875 c4bc b12a 773d 4b9c cabc b31f b2bc
00000370: fa2d ad3c 41b5 a0bd 2414 e73c 7cba 9a3c
00000380: 5798 933b bb40 6e3d 4625 3b3d ed31 46bd
00000390: 84f1 afbd e44f 02be 70c2 76bd b946 073d
000003a0: 47a6 c7bd 2f03 ac3a 4f19 e1bd 58a4 bbbc
000003b0: f1ad f9bc a1ed 0dbe b15d 8dbe 7e40 28bd
000003c0: 420e 87bd d8f1 bbbe 8416 fbbc f6fa d63d
000003d0: 2e92 93bd 70c2 f23c 8f1b 803d a9b2 79bd
000003e0: 03c3 aebd 82e2 113e 98ca cbbd c358 8dbd
000003f0: ceb8 36bd 160e 00bd ac9b 513d e352 a5bd
-0.0105586285 -0.06906492 -0.047266904 -0.09212569 -0.5151276 -0.2785379 0.059902642 -0.17745759
-0.18876196 -0.0929351 0.007603448 -0.093050875 0.14198789 -0.060576517 0.13665262 0.0915953
-0.03582451 -0.15351325 0.39033738 -0.044800572 -0.0861536 -0.16407168 -1.1017275 -0.6506669
0.14938423 -0.3889913 -0.04211713 -0.008934413 0.023755178 0.01899879 -0.13241185 -0.04289129
0.09995417 0.013950809 -0.05590289 0.06467249 -0.18771066 -0.12892643 -0.036521126 -0.03016523
-0.10513464 0.055070106 -0.032225616 0.020871136 0.053616226 -0.06397794 -0.0035732316 0.034339104
0.07955447 0.26930335 0.26836628 0.06419477 0.19401376 -0.051473364 0.03973896 0.02182425
0.03919032 0.012460552 -0.21764494 0.022359617 0.06156238 -0.039813146 -0.07305714 0.057794653
-0.10048039 -0.006293671 -0.024475245 -0.29119623 -0.22512978 0.051110625 -0.08380996 -0.21729816
-0.113237925 0.11616992 -0.026343398 -0.13161324 0.097740926 -0.054021895 0.03851272 -0.034834646
0.03533803 -0.109372735 0.030516312 0.02011652 -0.04516993 0.01312126 0.09848392 0.020666322
0.04942417 -0.0069064684 0.038511682 0.08385496 0.051747277 -0.07258559 0.015221426 0.046990953
-0.056901462 0.031115394 -0.035539716 -0.27454227 0.015152712 -0.057573866 -0.13116473 0.48745725
0.15974101 0.14084043 0.49451998 0.15300196 0.2055406 0.03491395 0.076156475 -0.114574395
-0.16647267 -0.15525986 -0.04836512 -0.11339842 -0.14884885 0.19496918 0.073269054 -0.021248974
-0.010299696 -0.32306147 0.07965861 0.017228063 0.0011301435 -0.12580074 -0.24518637 -0.032180358
0.0028905568 -0.13157463 0.19201517 0.31517154 0.08363005 0.10773252 0.068761565 0.019017965
-0.04459708 -0.13108505 0.021541044 -0.14238031 0.0061456664 0.034112435 -0.013202469 -0.027536843
-0.07728066 0.008657051 -0.0020381275 -0.07843413 -0.14071758 0.04417331 -0.09247516 -0.33760923
-0.02228152 -0.19752358 -0.3500561 -0.016711842 -0.20377378 -1.0301828 -0.038398024 -0.33171964
-1.6524808 -0.32226723 0.06028178 0.00876029 -0.12875213 0.088373326 0.034595907 -0.0036468927
0.024546543 0.03326521 0.018227182 0.10399011 0.19052544 0.035531368 0.14981405 -0.14573541
0.11997848 0.08837373 -0.8134243 0.14341725 0.10691646 0.04748808 0.24500126 -0.16478439
-0.31522852 0.03869833 -0.091585144 -0.2112197 0.17966077 -0.27177185 -0.1514619 -0.024566691
-0.20545523 -0.3503518 -0.04210012 -0.23240317 -0.51546633 -0.121603586 -0.062332675 -0.024730619
-0.017533204 0.080342576 -0.024923434 0.09945162 0.09624635 -0.0787829 0.13959031 -0.1081385
0.047417644 0.0055191945 -0.040398143 -0.021581981 0.04921422 0.08460796 0.05006276 0.018673351
-0.023981646 0.060343448 -0.02473273 -0.021743631 0.021140087 -0.078470714 0.028207846 0.01888775
0.0045042443 0.0581672 0.045689844 -0.048387457 -0.08590987 -0.12725788 -0.060244024 0.03302643
-0.09748512 0.0013123507 -0.10991155 -0.022905514 -0.03047845 -0.1386018 -0.27610543 -0.04107713
-0.06594516 -0.3670795 -0.030650385 0.10497086 -0.07205616 0.02963373 0.062552564 -0.0609614
-0.08533289 0.14246562 -0.09950751 -0.069016956 -0.044609837 -0.031263433 0.05117385 -0.0807245

conv2.bias f4 [32]
00000000: 09f9 f23b 299e 1dbd a021 d0bd 670f 1dbe
00000010: af88 0ebd 73e2 d83d f111 d73d d052 6b3d
00000020: c6a2 cb3d 0238 01bd 5cfc 003d a834 843d
00000030: 5c20 073b e8eb 4cbe 1e53 853d 93e7 e53b
00000040: b561 b8bb 7951 603d d854 2fbd bd74 9bbc
00000050: 1fe7 e73c eb71 813d dab3 a2bc f8ac 423d
00000060: c43a bbbd 622c 6cbd a6bf 0ebe 0ac8 0f3c
00000070: 2a04 683d 2af1 debd 6823 fe3d 5ca8 333d
0.007414941 -0.03848091 -0.101626635 -0.15337907 -0.03479832 0.10590067 0.10501469 0.057452023
0.09943156 -0.031547554 0.03149067 0.06455356 0.0020618653 -0.20011866 0.06509994 0.007016131
-0.005626882 0.0547652 -0.042805523 -0.018976564 0.02830845 0.06320556 -0.01986115 0.047528237
-0.09142068 -0.057659514 -0.13940296 0.00877572 0.056644596 -0.10885842 0.12409097 0.043861732

conv2_bn.weight f4 [32]
00000000: 851e 073f 05be 983f ced4 d83e 56a7 b33e
00000010: 489d 373f ce87 3f3f 5cde ad3e 6a76 df3e
00000020: 2c53 003f ec29 8d3e db3c ce3e 65c8 093f
00000030: d072 bb3e 9590 913e 087a 853e 1ea2 4c3f
00000040: ae16 273f 8498 c43e 82d9 373f 82c7 173f
00000050: b9a0 a13e 4218 2f3f 8a9a a63e 6fa5 173f
00000060: 7a3e 123f 3e46 bc3e d2bf d13e 0754 5a3f
00000070: 3f05 b73e db49 223f 5b5c 313f 74d1 373f
0.52780944 1.1932989 0.42349857 0.35088605 0.7172437 0.74816597 0.3395871 0.4364503
0.5012691 0.27571046 0.40280804 0.538214 0.36611032 0.2843062 0.26069665 0.7993487
0.6526898 0.3839761 0.71816266 0.592888 0.31567934 0.6839639 0.3253978 0.59236807
0.5712658 0.3677234 0.4096666 0.85284466 0.3574619 0.63393945 0.6928155 0.71803975

conv2_bn.bias f4 [32]
00000000: ed1b c0be 693c 1ebf 2060 47be 999f 5cbd
00000010: 0074 dfbe 20b9 cabe 5bef eebc 1167 ecbd
00000020: 8a52 94be 2f0f 253e dfe9 60be 75c5 7abe
00000030: 4bf0 05bd c137 923d 0f8e db3b 6736 ffbe
00000040: 2499 13be 4331 f9bc 0a7b 81be 6289 92be
00000050: 1449 a83d bfb9 9fbe 17cd e53d 5a0b cdbe
00000060: c224 5cbe b525 c2bd f0bc cabc 3904 bebe
00000070: d9ed a03d 9e42 07be 4819 3dbe 9204 18bf
-0.37521306 -0.6181093 -0.19470263 -0.05386314 -0.43643188 -0.39594364 -0.029166868 -0.11543096
-0.28969222 0.16119073 -0.21964215 -0.24489386 -0.032699864 0.071395405 0.0067002843 -0.49846193
-0.14413887 -0.030418998 -0.25289184 -0.2862044 0.082170635 -0.311964 0.112207584 -0.40047723
-0.21498397 -0.09479848 -0.024748296 -0.37112597 0.07857866 -0.13209006 -0.18466675 -0.59381974

conv2_bn.running_mean f4 [32]
00000000: c423 93bf 4a64 56c0 9d63 90bf a7d6 49bf
00000010: b0ea e5bf bb3d 0fc0 d6f5 27bf 45c3 81bf
00000020: 915d 08bf 8114 cb3f bb21 53bf f229 d0bf
00000030: 1108 983e e549 1bbf 4784 94bf c018 b9bf
00000040: e040 9abe 0a93 45bf 5f76 fcbf 4916 05c0
00000050: 6c00 e33f 6822 f3bf f65b a1bf 3082 97bf
00000060: 79a4 95bf c3e8 1abe 90cd cbbe 1490 13c0
00000070: a160 2ebf 28ea 97bf a1ff cebf 4914 08bf
-1.149529 -3.3498712 -1.12804 -0.7884316 -1.7962246 -2.2381427 -0.6560949 -1.0137717
-0.5326777 1.5865632 -0.82473344 -1.6262801 0.29693654 -0.6065963 -1.1602868 -1.4460678
-0.3012762 -0.7717749 -1.9723624 -2.0794852 1.7734504 -1.8994875 -1.2606189 -1.1836605
-1.1690818 -0.15127854 -0.3980527 -2.3056688 -0.68116194 -1.1868334 -1.6171762 -0.5315595

conv2_bn.running_var f4 [32]
00000000: 16cf f93f 7ac5 bc40 be99 da3f 1cb8 9a3f
00000010: 8b92 3540 5e13 5840 9db8 733f ac11 0940
00000020: f08c ac3f c15b d63f 7401 863f a784 7d40
00000030: 0423 c93f f62f 573f 22f3 863f 0126 7540
00000040: 0b92 f23f f972 d63f 023e 4940 a064 ed3f
00000050: e733 0e40 d681 8f40 9ae4 823f 7fde f73f
00000060: 9f4a c63f 543e 583f 971a ec3f be0f 2540
00000070: 6389 573f 9f5d c53f 6c86 1240 7bc7 7a3f
1.9516323 5.899106 1.7078168 1.2087436 2.8370693 3.376182 0.9520357 2.1417036
1.3480511 1.6746751 1.0469193 3.9612215 1.5713811 0.8405756 1.0542948 3.8304446
1.8950819 1.6753837 3.1444097 1.8546333 2.2219179 4.484599 1.0226014 1.9364775
1.5491523 0.84470105 1.8445615 2.5790858 0.8419401 1.5419196 2.2894545 0.97960633

conv3.weight f4 [64, 32, 3, 3]
00000000: 8dc6 113d 8c14 48bd 17df 58be 8fbc 353e
00000010: bd53 683d c66b 35bc e28e 1fbd a39b 3dbe
00000020: 93f2 e3bc a7c5 c23e a9c8 c0be 3338 d2be
00000030: 3596 71bd 057f 21be cac3 8bbe 31d0 673e
00000040: 5a88 b33e c2c0 34be 356f 0fbe 10e1 e3bd
00000050: e708 19be 3668 f83d 32b3 cc3c ef28 f6bd
00000060: a86f 6d3e 4e25 7b3d 1e1e da3d e836 5cbc
00000070: bd3c cfbd c718 14be 3c52 603e 9de1 3dbc
00000080: 7e23 153e 8271 f33d 07a2 6cbe 9577 233e
00000090: ded0 a0bd c09c 4abe 5ba5 703e 71ea 3f3e
000000a0: 3184 afbd d08c 773b 1cd8 ee3e 564e b6bc
000000b0: 7c9a fdbe e276 9abe 8761 99bd 0ba5 46be
000000c0: 359d d93a 6cad 0fbe 1dec 76be bb8a 91bd
000000d0: 1c2e 94be 0f60 f2be 04fe 2dbe c579 eabc
000000e0: c4f9 3b3e d5c5 313e c57d 41be 3a84 c13d
000000f0: 79f8 8a39 b741 6fbe 2920 afbe 9b8b 3dbe
00000100: dcfb 8ebe 5a1c d6bd 459c c5bc 3ebb 023d
00000110: 466b 76be 8a8e c43e 07e0 9f3d 488f 3f3e
00000120: 494f f9bc 6415 fcbc 11f9 583d 3567 41be
00000130: a6e1 3cba f9a8 b1be 2914 b4be 0960 c2bd
00000140: 915b e1be a2aa 11be e24c 76bd d842 4abe
00000150: aeda b33d 81c5 a73d 9dd0 b6be 9c90 77bb
00000160: b404 babd 1fa9 1c3c 33c8 9d3d 3d13 4e3e
00000170: 3033 013e d8eb b83e ea68 c13e 45ed f93e
00000180: 2c48 abbd e741 8d3d fead 3f3e a804 a53e
00000190: 2f25 903d 619f b5bc ebc2 bebb f210 663c
000001a0: b770 143e 18c7 23bd 1098 ad3c 500a 853e
000001b0: 7977 c33d e2ee 3b3e dd76 173d 08ab 433e
000001c0: f21d c8bd b23d 10be 7b00 a03e ce19 8dbd
000001d0: c378 a1bd 9691 4a3d 318d d23e 52ce 0c3e
000001e0: dbd5 c13d 4280 e63d 0bb2 cebd 1b96 a33c
000001f0: 6359 d23d 3ad8 5abd fbfb 29bd 348e f53d
00000200: e5b3 213d cff1 26be 1976 90bd 9dfb 9dbe
00000210: 5bd1 a9bc 38cd efbd ff04 b5bd 7aa7 ad3c
00000220: d51d bcbe be55 e9b9 75e3 f23c 5a42 ea3d
00000230: c367 513e 1925 dbbd 6250 fa3d dc86 953c
00000240: b606 473e 87e4 0c3e 0258 7d3e ebf2 e8bd
00000250: 2173 8abd 1810 973d f020 32bd b03a dd3d
00000260: 58be 3c3c c886 efbd f476 6a3d 3d2c 803a
00000270: afea 0a3d 8b71 93bd fd77 8ebc 9faf 9fbd
00000280: 52a0 033e 77d7 3b3d f51f 0c3e 2469 88be
00000290: 2423 85bd b746 ee3e 50be 473c 3861 aa3d
000002a0: 2b99 853e 6a80 553d fb3b 033d 4696 7a3e
000002b0: 19cd ed3d be1c 4e3e 23c6 94be 79f3 adbd
000002c0: 72cb 5f3e 307e fbbd f7fd 9e3d f1e0 813e
000002d0: 7642 213d dd84 b0bc 2e84 1dbd 2661 1f3c
000002e0: 01e6 fbbd bbce 1dbe e745 1e3d 652b 88bd
000002f0: cdb8 edbd 2043 e13d 68c3 87bd d3dd 323e
00000300: acbf 1fbe 4e89 33bd 311e d9bd 37cb 5d3e
00000310: c1aa 7f3e 8bb1 9dbe f3b4 fcbd 691c b83c
00000320: b67f c13b b1a5 bcbd b9ee 023e 2b23 bf3b
00000330: dcf2 e63d 8bd3 6ebd 9544 7a3d 41c0 11bd
00000340: da7e 93bc 9cbc d53d 5d58 91bc 570f 523e
00000350: 23bb 3c3e 6ca1 92be 6d72 eb3c f472 c6be
00000360: e8c0 acbd 8d8f a8bd b160 cf3c 0f9b 043e
00000370: 6361 723d 445c a5bd 3c27 4abe 4834 d2bd
00000380: d88d 12bf f58f 293e 236a 7c3c af4e 6f3e
00000390: 884f 9f3d 56a7 12be 7a46 80bd 066c b03d
000003a0: 3963 2fbe d7ee 823e e876 673e ca23 433e
000003b0: a91d acbd f240 1e3d 0f09 ed3c b561 68be
000003c0: cc7c d63c 2e1a 963d f274 e63d 7247 56bd
000003d0: be63 373e 97b2 933e b05f 91ba 039f 46be
000003e0: 74cc 09bd 3d15 963d 8897 a4bc 5f5d 18be
000003f0: da76 323e b270 1d3e 3aca cc3e 688f 463e
0.035589743 -0.04884772 -0.21178852 0.1774771 0.056720484 -0.0110730585 -0.038954623 -0.18516402
-0.02782563 0.38041422 -0.37653092 -0.41058502 -0.05898114 -0.1577111 -0.27297813 0.22638012
0.35064965 -0.17651656 -0.14007266 -0.11126912 -0.14944802 0.12129252 0.02498779 -0.12019526
0.23187125 0.061314873 0.10650276 -0.013440825 -0.10119007 -0.14462577 0.2190637 -0.011589435
0.1456432 0.11886884 -0.23108684 0.15963586 -0.07852338 -0.19786358 0.23500578 0.18741776
-0.085701354 0.003777314 0.46649253 -0.02225415 -0.49531925 -0.30168825 -0.07489305 -0.19398896
0.0016602637 -0.14030999 -0.24113508 -0.07106539 -0.2894143 -0.47338912 -0.1699143 -0.028622517
0.18356997 0.17360623 -0.18895634 0.09449048 0.00026506538 -0.23364912 -0.34204224 -0.18510287
-0.27926528 -0.104546264 -0.024122367 0.03191685 -0.24064359 0.3839 0.07806402 0.18707001
-0.030433314 -0.030771919 0.052971903 -0.18887027 -0.0007205255 -0.34699228 -0.3517163 -0.094909735
-0.44015172 -0.14225248 -0.060131915 -0.19752061 0.08781944 0.08191968 -0.35706034 -0.0037775403
-0.09082928 0.009561806 0.077042006 0.20124526 0.12617183 0.36117435 0.37775356 0.48813835
-0.08363375 0.068973355 0.18718717 0.32230115 0.07038342 -0.022170724 -0.005821576 0.014042126
0.14496122 -0.039984792 0.021190673 0.2598443 0.09544272 0.18352845 0.03697859 0.19108212
-0.097713366 -0.14086035 0.31250367 -0.068896875 -0.078843616 0.049455248 0.41123345 0.1375058
0.09464618 0.11254932 -0.10092553 0.019969037 0.102709554 -0.053428866 -0.041500073 0.11990014
0.0394782 -0.1630318 -0.07053775 -0.30856028 -0.020729711 -0.11709064 -0.088388436 0.021198023
-0.3674151 -0.00044505106 0.029649476 0.11438437 0.20449738 -0.10700435 0.12222363 0.018252783
0.19436154 0.13759051 0.24740604 -0.11374458 -0.0676024 0.073761165 -0.043488443 0.108022094
0.011519991 -0.11695629 0.05724235 0.0009778809 0.033915218 -0.07199391 -0.0173912 -0.07797169
0.12854126 0.04585978 0.13684066 -0.26642716 -0.06500843 0.46538326 0.01219137 0.08319324
0.2609342 0.05212442 0.032039624 0.24471387 0.11611385 0.20128152 -0.29057416 -0.08493704
0.21854952 -0.12279928 0.07763284 0.2536693 0.039370023 -0.02154773 -0.038456134 0.009727752
-0.12299729 -0.15410893 0.038640883 -0.06648902 -0.116075136 0.10999131 -0.06629068 0.17467432
-0.15600461 -0.043832116 -0.10601462 0.21659552 0.24967481 -0.30799517 -0.12339201 0.022474485
0.005905117 -0.09211291 0.12786378 0.00583305 0.112767905 -0.05830721 0.06110056 -0.03558374
-0.018004823 0.10436365 -0.01774233 0.20513664 0.18430762 -0.2863878 0.028741086 -0.38759577
-0.084352314 -0.08230505 0.02531466 0.12949775 0.059174906 -0.08074239 -0.19741529 -0.10263878
-0.57247686 0.16558821 0.015406164 0.23369859 0.07778841 -0.14321646 -0.06263442 0.08614354
-0.17127694 0.25572845 0.22603953 0.19056621 -0.08404095 0.038636155 0.028934984 -0.22693522
0.026182555 0.07329212 0.11252774 -0.05231423 0.17909142 0.2884719 -0.0011091139 -0.19396596
-0.033642247 0.0732827 -0.020091787 -0.14879368 0.17428151 0.15375021 0.39998037 0.19390643

conv3.bias f4 [64]
00000000: 54b4 ad3a dce0 023d e562 733d b20c a13c
00000010: f8f7 5fbc 5d64 973c 759f c93a b833 9b3b
00000020: 0477 033d 15bf f83c 618f 6dbd 9500 623b
00000030: 5289 9e3c 05f6 523d 5e6c 543d 5202 f8bc
00000040: a378 a3bd f50a 3cbd 0d09 ae3d 1fbf b73b
00000050: 17ee 183d 4175 613d e21c 97bd 08f1 8dbc
00000060: 5f3a 2ebd 568c 5bbc 7875 1b3d 786d 4ebd
00000070: 50bd d0bc f0a3 74bd ffd0 92bb a604 f83d
00000080: 1e38 8d3d 226f b43d cc54 24bd 5c24 83bb
00000090: ff23 bebd ed04 653d dcd7 acbc b872 a13d
000000a0: 15fd a8bc c88b 833c c7c9 97bb 1fa7 153d
000000b0: 2d69 9d3c f616 71bd c822 87bd fccf e73c
000000c0: 20fe af3d c56f aabd 9230 0fbd 6fc2 56bd
000000d0: 2392 243d 6190 38bd 17e7 b6bc c415 013d
000000e0: 2b1e 083d 7814 063d 2878 a33d eace ccbc
000000f0: 5003 9b3d 5172 3f3c 7a0f 97bd dc56 ecbc
0.0013252595 0.031952724 0.059420485 0.019659374 -0.01366996 0.018480474 0.0015382605 0.00473639
0.032095924 0.030364553 -0.057998065 0.003448521 0.019352589 0.051504154 0.05186116 -0.030274544
-0.07981994 -0.045908887 0.0849782 0.0056075 0.037336435 0.055043463 -0.07378556 -0.017326847
-0.042536136 -0.013400158 0.037953824 -0.050397366 -0.025480896 -0.059726655 -0.0044804807 0.121102616
0.06895469 0.088102594 -0.04011993 -0.004002137 -0.092842095 0.0559129 -0.021099024 0.07883209
-0.020628491 0.016057864 -0.004632208 0.036536332 0.01921519 -0.058859788 -0.06598431 0.028297417
0.08593392 -0.083220996 -0.03495843 -0.05243152 0.04017843 -0.045059565 -0.02232699 0.031514898
0.033231895 0.032734364 0.07981902 -0.025001008 0.07568991 0.01168497 -0.07375999 -0.028850012

conv3_bn.weight f4 [64]
00000000: cfe7 363f 3c1b 533f cb69 393f 5a3a 6a3f
00000010: b5b3 343f 65e7 6d3f 7fae 6d3f 6e17 0c3f
00000020: 314d 233f 2295 473f 2988 403f dfc4 0a3f
00000030: 9651 363f 1505 8f3f 1fe7 263f 273f 553f
00000040: 654f 1e3f 9f5f 433f 997a 2a3f b262 303f
00000050: 27a7 663f e02d 2b3f d537 483f 9e1d fe3e
00000060: 951e 5b3f f404 3e3f 9f37 623f 702e 303f
00000070: b8f4 173f 8067 803f a6b9 5d3f 17ff 503f
00000080: a4d7 7b3f bd32 163f 563f 7f3f 9756 1c3f
00000090: 28fb 283f 4734 5f3f 2895 6d3f 5ab8 683f
000000a0: 66c5 4d3f dc98 5a3f 0941 3c3f da43 353f
000000b0: 9eb9 2b3f 4396 483f 6a1c 383f 3fc9 1f3f
000000c0: 981e 6a3f 3a5f 5f3f 7f1a 5f3f 6348 623f
000000d0: 9903 3b3f c3b9 4c3f fc51 453f 133c 1d3f
000000e0: bd91 143f 2897 253f 7433 243f fba3 833f
000000f0: 211a 2a3f 2a16 2f3f d9d9 143f b452 673f
0.7144746 0.8246343 0.7242705 0.9149529 0.7058671 0.92931205 0.92844385 0.5472325
0.6378966 0.77961934 0.75207764 0.5420665 0.7121824 1.1173426 0.6519641 0.8329949
0.61839896 0.7631778 0.6659332 0.689006 0.90098804 0.66866875 0.7821019 0.4963197
0.8559354 0.7422631 0.8836612 0.6882086 0.59357786 1.0031586 0.866114 0.81639236
0.98375916 0.5867117 0.9970602 0.61069626 0.66008234 0.87189144 0.9280572 0.909063
0.8037933 0.85389495 0.73536736 0.7080666 0.67080104 0.7835428 0.71918356 0.6241645
0.9145293 0.8725468 0.87149805 0.88391703 0.73052365 0.7997095 0.77078223 0.6141979
0.5803488 0.6468377 0.6414101 1.0284418 0.6644612 0.68393195 0.5814491 0.9036057

conv3_bn.bias f4 [64]
00000000: 8a52 eabe d548 6fbf d6fe 93be f6ee 32bf
00000010: 10e3 24bf 8733 c7be c330 62bf 1ebf 3d3d
00000020: 3bc5 05bf 97e4 3cbf 44bd 02bf 254d a5bd
00000030: e35f 03bf 0d27 f3be 6b3b f3be a14a 01be
00000040: 31bc 03bf 004a 72be df1c bbbe 23d9 05bf
00000050: 6756 62bf 818e b4bd 1f3e 51bf cfec 81bd
00000060: 6f26 24bf 32e2 2dbe e56a 0fbf ad70 e7be
00000070: faef 08bf c6e7 19bf 76cd 0ebf 3a88 15bf
00000080: 8875 16bf 99c4 c4be 2350 57bf 66c0 febe
00000090: 59d1 31bf 5591 47bf 2b97 7abf a0ed 63bf
000000a0: 9d8c cb3e a534 2ebf 284a 17bf e6da 3dbf
000000b0: af29 babe 152f 81be ecb7 4cbf c476 a6be
000000c0: 728f 41bf 8bf1 e1be 5aca 28bf 5daf 3cbf
000000d0: 6cef ccbe d056 4abf 5fa8 cebe 995e 5ebf
000000e0: a9d3 28be feb4 fbbe a2a0 e4be 58e3 84bf
000000f0: 7885 11bf 047d 01bf 3635 0bbf 3b24 fabe
-0.45766097 -0.9347051 -0.28905362 -0.69895875 -0.6440897 -0.389065 -0.88355654 0.04632484
-0.52254075 -0.737863 -0.51070046 -0.08071355 -0.51318187 -0.4749073 -0.4750627 -0.12626125
-0.5145903 -0.23661041 -0.36545464 -0.5228445 -0.8841309 -0.08816243 -0.81735414 -0.06343996
-0.64121145 -0.16980818 -0.56022483 -0.45203152 -0.53491175 -0.60119283 -0.5578226 -0.5841099
-0.5877309 -0.38431242 -0.84106654 -0.49756163 -0.69460064 -0.77956134 -0.97886914 -0.8903446
0.39755717 -0.6804908 -0.5909753 -0.7416214 -0.36359927 -0.25231233 -0.7996814 -0.32512486
-0.75609505 -0.44129595 -0.65933764 -0.73705083 -0.40026414 -0.79038715 -0.40362832 -0.86863095
-0.16486992 -0.49161524 -0.44653803 -1.038188 -0.5684428 -0.50581384 -0.5437807 -0.48855767

conv3_bn.running_mean f4 [64]
00000000: 9936 aa3e 788c 98bf 01e0 abbf 6b7b 273e
00000010: 879c f9be ed06 95bf 1180 04c0 4015 47bf
00000020: 861a 5cbf ded7 50bf f4da f3bf 7ddf d43e
00000030: a677 533e 1ae8 bbbf f326 e0bf e214 1abf
00000040: ac6c 81bf 802d 44be be8b 73bf 39ec b4bf
00000050: ede3 1ebf ab1d 2fbf 11e1 6ebf b5e9 b7bf
00000060: 2fdd 98bf f62c 27bf e337 85bf cdcd 33bf
00000070: fb30 613e 8037 efbf d6f3 a5bf df5d d7bf
00000080: 3442 4dc0 2db6 5dbf 0f92 5dbf fd58 7b3f
00000090: 9d1d 58bf b1ff 6f3c 57a4 50bf 5ca6 8dbf
000000a0: 44c4 dcbf ba87 1240 256f b0bf 5fe8 d0bf
000000b0: 6098 ffbe 2995 89bf 4687 58be c98b 573d
000000c0: deca 52bf 77ff 75bf 5f7b eebf 3867 0bbf
000000d0: fbe1 87bf f6cd 1fbf 4f64 16c0 19b6 0abf
000000e0: ec19 95bf e8d6 9fbf bebf bcbf c418 97bf
000000f0: 13c4 11c0 0340 30c0 a616 a7bf a4ca dcbf
0.3324478 -1.1917868 -1.3427736 0.16355674 -0.48752233 -1.1642739 -2.0703166 -0.777668
-0.8597797 -0.8157939 -1.9051194 0.41576758 0.20651111 -1.4680207 -1.7511886 -0.60188115
-1.0111289 -0.19157982 -0.95135105 -1.413459 -0.6206654 -0.68404645 -0.93312174 -1.4368197
-1.19425 -0.6530298 -1.040768 -0.702359 0.21991341 -1.8688812 -1.2965038 -1.6825522
-3.2071657 -0.86606103 -0.8655099 0.9818266 -0.84420186 0.014648364 -0.8150076 -1.1066394
-1.7247396 2.289534 -1.3783919 -1.6320914 -0.4992094 -1.0748645 -0.21145353 0.052623544
-0.823408 -0.96092933 -1.86314 -0.54454374 -1.0615839 -0.62423646 -2.3498724 -0.5418411
-1.1648536 -1.2487459 -1.4746015 -1.1804433 -2.2775924 -2.753907 -1.3053787 -1.7249341

conv3_bn.running_var f4 [64]
00000000: 63da 3e3f d2c9 8c3f dcec 5b3f a2c0 b73f
00000010: 58fa 453f 764a 3a3f 02e7 0740 6243 763f
00000020: 6764 2f3f 407d 633f c3d5 9c3f c82d 423f
00000030: 1624 2f3f 4300 ab3f cf27 613f 25ce 923f
00000040: 15c8 303f 220f 413f 7d7c 5d3f 92d9 7a3f
00000050: 18c5 4c3f d21d 7b3f 9f1f 5c3f 77c9 7f3f
00000060: 3bc5 773f ed04 4b3f 6535 993f e735 2f3f
00000070: f929 6a3f 8cf8 b73f b133 aa3f 4385 793f
00000080: 72d4 953f e5e8 863f f123 393f d76a 2a3f
00000090: d165 583f af59 373f 41b0 383f f869 733f
000000a0: 6ce2 963f 92ca 733f 2cd9 9c3f 1f49 423f
000000b0: 49a4 2b3f 6f00 773f 2b6b 553f cac2 fd3e
000000c0: 5dbb 803f cd35 913f 6327 a23f c083 1f3f
000000d0: eec5 8d3f 7b90 203f a238 973f f04e 173f
000000e0: eaf9 333f f9da 783f 9b12 8b3f d7a7 e03f
000000f0: 7774 603f e2f7 633f 79ce 463f 756a 843f
0.7455198 1.0999091 0.85908294 1.4355662 0.7733512 0.7276987 2.1234746 0.9619657
0.68512577 0.8886299 1.2252735 0.75851107 0.6841444 1.3359455 0.8795137 1.146916
0.690553 0.75413716 0.8651808 0.97988236 0.7998824 0.9809238 0.8598575 0.99916786
0.96785325 0.7930439 1.196942 0.68441623 0.91470295 1.4372725 1.3297025 0.97468966
1.1705458 1.0539824 0.7232047 0.66569275 0.8453036 0.7162122 0.7214394 0.9508357
1.1787848 0.9523097 1.2253776 0.75892824 0.67047554 0.96485037 0.8336665 0.49562675
1.0057179 1.1344544 1.266827 0.6231041 1.1076028 0.6272046 1.1814158 0.59104824
0.70303214 0.97209126 1.0865053 1.7551221 0.8767771 0.89050114 0.776588 1.0344988

fc1.weight f4 [128, 256]
00000000: e9cd af3e 0371 ad3e 0d0a c33e dc95 ab3e
00000010: 8e52 2bbf 7155 64be 7a9d 0fbf fcd3 b6be
00000020: b076 13bc 0fa5 6c3d 3a87 4f3e 75e0 ab3e
00000030: 7824 d4be 2e2a c13d 361c 70be 31c9 6ebe
00000040: 6fd3 28be ebc8 a3be f6bf 2b3c 657d 39be
00000050: d824 a63d 89eb 833d 2cbb 6ebe 6c7b 1bbd
00000060: f94d 6e3d ee9c 70be 73b4 74be c9ca debd
00000070: 72c9 863e acb0 8dbe 503e b63c bec2 a5be
00000080: 362b 65be 47f9 373e dc00 6bbd 12e0 23be
00000090: f187 28be 9a34 c0bd ff91 82be a934 b4bb
000000a0: eb9a a5be e01a 48bf 5d06 80be f381 c53b
000000b0: d1f1 bbbe bcb7 acbe f2bf 4abe 544d 6fbe
000000c0: e673 c2be 3b1c 7a3d 6afd dbbe ba86 213e
000000d0: 152b 47bc 8f0e e0bb a13b 243d 246a 9fbc
000000e0: 3798 053e dbdb 523e fce5 c9bd a401 b23e
000000f0: 4b82 ae3e f920 493e 7f8e c33d 1868 f33c
00000100: 6918 87be d97e 1c3e 39ed e5be 880d ccbe
00000110: d2b1 ad3d fe5e 61be ede6 68be a7dc f0be
00000120: 983d febd 3a17 623e 281a 383d d47e 9b3e
00000130: e2f9 88be dfa1 f8be 2456 dfbd c280 013e
00000140: bf20 e23d 4d57 083e f16e 6cbe b7c0 1abe
00000150: 6aa9 083e 07f6 3bbe c39b 363e 8797 da3d
00000160: ad69 fe3e f12a fc3e 1319 083d c743 363d
00000170: e55a 58bd d8f0 143e 0cd3 eabd eecd c53d
00000180: 2bb7 7bbd 324d 413e 690b 8ebe c1ff 4cbd
00000190: 6f5f 833e 324e 7cbd 64d4 ad3d 3d55 6d3e
000001a0: 00fc d63e 6850 c73e df69 cf3d 5375 673d
000001b0: 5cad bbbd d203 0dbe e66a 8a3e efaf f9bd
000001c0: fad3 bbbe 51b3 7fbe 26df 16be 0d89 c6bc
000001d0: 58b0 e6be 6d47 d4be bab7 35bf bd4b dcbe
000001e0: 2f5a 38be 5632 e7bc a9d4 063f b2bd 9e3e
000001f0: b6b8 4d3e 54bf 01be 0f1a 80be 308a a33d
00000200: cbae 2cbd 995b 7bbe e770 6dbe 178f bdbe
00000210: 3a39 3d3e 8918 c33e dff0 a43d 3e40 843e
00000220: 188a 10be 2340 8abd 069b e6be 6e0c b8be
00000230: f8ea 1a3e f07a 02bf 5a52 dcbd 3ba4 73bd
00000240: 8f60 473e 83a2 043c f207 483e 7aa7 debd
00000250: dd60 453e 3b0f 9e3d e646 3fbe 09f5 d33c
00000260: bc53 53be c94a 93bd c821 3fbe 7a37 d4bd
00000270: d4cd 43be 1ee6 903e 8e5e dbbe 2fee f6be
00000280: cb41 b03d 7cc6 6a3e d4f4 793e affa 963b
00000290: 3ab8 a6be d77e e4bd f2d7 ac3d 9eb0 683d
000002a0: f6d1 ebbe fbcc 1ebe 2587 e5be 0b59 f2bd
000002b0: ed83 2abe ffef 86be e4de 133d 2ac3 c4bd
000002c0: eb3f 0abe ec0a 96be a5e5 c63b 10e2 c5be
000002d0: 6da2 f6be e048 03be 6741 5f3d 96db 693d
000002e0: 5b0e bcbd 7d10 e7bd e87f 24be 2318 3c3d
000002f0: 2e42 1bbe b0cc 1dbe 8557 6d3e 2bae a43e
00000300: 6471 a0bd 4dec 15be 94e2 013e e0e2 e23c
00000310: 0652 a13e 506f 3bbe 1733 ff3e f14c 013e
00000320: d38d 21be fb36 74be 930f 2bbd d0db abbd
00000330: ee39 713c 70eb 5e3a 4118 103d ad25 9dbe
00000340: 8760 12bf 3f8d aebe b728 933e 5164 783e
00000350: 85a0 d0bd c800 273d abb8 8fbe 4286 2dbe
00000360: 0361 b8bd f855 cc3d bf17 a63e da25 8e3e
00000370: 7cee 2b3e e531 733e a330 2ebb d08f 473d
00000380: 53e6 3b3e 44bb f13d c6fa f83d 09a1 713e
00000390: e0ca b3bd b435 56be 6c01 4d3e bf95 2cbe
000003a0: f43a b0bd d802 abbd 3216 9cbe 628c 343d
000003b0: cbb1 cfbe 855c 9cbe fed5 3d3d 6412 edbe
000003c0: 8756 2f3e 9a43 35be 9c39 ac3d 4c48 6cbe
000003d0: 1cfe 1bbe ea47 63be 1074 48bf 31e4 3abf
000003e0: 0ffe d33c e05f 183e baf5 51be 27ba b4be
000003f0: b789 91be bcc5 f0bd c899 02be 00d0 cdbd
0.34336784 0.33875284 0.38093606 0.3351277 -0.66922843 -0.22298218 -0.56099665 -0.35708606
-0.009000465 0.0577746 0.20266429 0.33569685 -0.41434073 0.09431873 -0.23448262 -0.23318936
-0.16486906 -0.31989226 0.010482779 -0.1811424 0.08112496 0.06441409 -0.23313588 -0.0379595
0.05817983 -0.23497364 -0.23896961 -0.10878522 0.26325566 -0.27673852 0.02224651 -0.3237514
-0.22379765 0.17966186 -0.057373866 -0.16003445 -0.16458108 -0.09385033 -0.2550201 -0.0054994416
-0.32344756 -0.7816601 -0.25004855 0.006027454 -0.3670793 -0.33733928 -0.19799784 -0.23369342
-0.37979048 0.06106208 -0.42966777 0.1577405 -0.012156268 -0.006837673 0.04009593 -0.019459791
0.13046347 0.2059168 -0.09858319 0.34766877 0.3408378 0.19641484 0.09548663 0.029712722
-0.2638581 0.15282764 -0.4490755 -0.39854074 0.08481182 -0.22008893 -0.22744341 -0.47043344
-0.12414092 0.22079173 0.04494682 0.303702 -0.26753145 -0.48560998 -0.10905102 0.12646773
0.11041402 0.13314553 -0.23089196 -0.15112577 0.13345876 -0.1835557 0.17832856 0.10673433
0.4969 0.49251512 0.033227038 0.04449823 -0.05282106 0.14545 -0.11466035 0.096584186
-0.06145398 0.18877104 -0.2774308 -0.050048593 0.25658748 -0.06159801 0.08487776 0.23177047
0.41989136 0.38928533 0.10127615 0.056508373 -0.09163925 -0.13770989 0.27034682 -0.1219176
-0.36685163 -0.24970748 -0.14733562 -0.024235273 -0.45056415 -0.41460744 -0.7098347 -0.43026534
-0.18003152 -0.028222244 0.52668244 0.310041 0.20089993 -0.12670642 -0.2501988 0.079853415
-0.042158883 -0.2454666 -0.231876 -0.3702323 0.18478861 0.38104656 0.08053755 0.25830263
-0.14115179 -0.06750514 -0.45040148 -0.35946983 0.15128696 -0.5096884 -0.10757895 -0.059482794
0.19470428 0.008095386 0.19534281 -0.10871787 0.19275232 0.07717749 -0.1867939 0.025873678
-0.20637411 -0.071919985 -0.1866523 -0.10362144 -0.19121486 0.28300565 -0.42845577 -0.48228595
0.08606299 0.22927278 0.24409801 0.0046075205 -0.3256243 -0.11157005 0.08439626 0.05680906
-0.46058625 -0.15507881 -0.4482967 -0.1183339 -0.16651888 -0.26354977 0.036101237 -0.09607537
-0.13500945 -0.29305208 0.006069856 -0.38649035 -0.48170796 -0.12820768 0.054505732 0.05709418
-0.091824256 -0.11282442 -0.16064417 0.045921456 -0.15161964 -0.15410113 0.23177917 0.3216413
-0.078341275 -0.14640923 0.12684089 0.027696073 0.3150789 -0.18304181 0.49843666 0.12627007
-0.15776758 -0.23849098 -0.0417629 -0.08391535 0.014723284 0.0008503711 0.03517938 -0.30692807
-0.5717854 -0.34092137 0.28742 0.24257018 -0.10186867 0.04077223 -0.28070578 -0.16945747
-0.090028785 0.09977335 0.32439992 0.27763253 0.16790193 0.23749502 -0.0026579283 0.048721135
0.1834958 0.11803296 0.12157206 0.23596586 -0.0877893 -0.20918924 0.20020074 -0.16853999
-0.086049944 -0.08350152 -0.30485684 0.044079192 -0.40565333 -0.30539337 0.046346657 -0.46303093
0.17122851 -0.17701569 0.084094256 -0.23074454 -0.15233654 -0.22195402 -0.783021 -0.7300444
0.02587798 0.14880323 -0.20503893 -0.35298273 -0.2842538 -0.11756465 -0.12753975 -0.100494385

fc1.bias f4 [128]
00000000: 5d67 cc3e 32bf 1f3f f9b9 e93e 547c ab3e
00000010: ce7b c03e f367 783e d138 b53e fec8 b33e
00000020: 066d b23e 21ba e83e b3bb 96bc 643c 9a3e
00000030: 47e0 eb3e e65d a1bd 592e df3e c30d a1bc
00000040: effa 023f c133 f43e df83 d03e 7f1b bd3e
00000050: a2bb acbd 45b8 b73e de71 ab3e 3849 6c3e
00000060: 41b2 f43e e388 a63e ffb5 883e 3570 823e
00000070: 9844 ca3e 265b af3e 9b67 a7bd b379 053e
00000080: c88d 123e d4fb a13e d5e5 953e f783 f83e
00000090: 9d09 a13e 71a1 043e d31f c43e 9ca8 c7bd
000000a0: 1586 303e 6304 ab3e 25dc fa3e 2af3 963e
000000b0: a3d8 023f 1781 ad3e f9ae dc3e 8c61 b63d
000000c0: fa5f 683e 3c3a 033f 8e7e 263f 1009 023f
000000d0: 4015 9a3e d831 a73e a8a6 893e de05 e63e
000000e0: b6db 623e 3df9 f53e c246 e93b 72e7 973e
000000f0: 898b c23e 314f ba3e f5f0 ad3d a07d eb3e
00000100: 1c01 4a3e 8488 87be bf40 713e 72d4 2a3e
00000110: 3357 6d3e 935d 3c3e cf1c 0c3f ac5a 813e
00000120: 5642 b5bd fb0e b938 32aa 413e 710e 5cbd
00000130: f2c7 343e 43c9 a83e 926b 0b3f d822 883e
00000140: 68a0 193f 0920 fe3e e081 c13e 3b4c b03e
00000150: dd11 2e3e fffe 143f 14de 8ebd 2f18 e93e
00000160: f8c7 833e c81e f93e bf26 503e 871a bb3e
00000170: 176c c03e ae10 c63e e8d8 093e d46e 8e3e
00000180: 8a8e a23e 1a5d 0b3f e639 f73e f9e0 093f
00000190: 956a cf3e 221a febd ec8d 213f f66c fb3e
000001a0: 3e1b fc3e c682 87bb 1303 2e3f 5d0e edbc
000001b0: 427f 2d3f 2969 fa3e 0cb3 f23e 8785 96bd
000001c0: 93d1 5bbd 0951 493e 2e9c 5f3e 507d acbd
000001d0: 14a6 1c3f 5de8 b23e ebd2 e23e 2040 26bd
000001e0: c959 e43e 13cf 46bc e448 f43e f48f 373e
000001f0: 8296 f73e 509b 443b ddef 943e 182c 80bd
0.3992261 0.62401116 0.45649698 0.33493292 0.37594455 0.24258403 0.3539491 0.35114282
0.34848803 0.45454505 -0.018400049 0.301242 0.46069548 -0.07879238 0.43590048 -0.019659882
0.51164144 0.47695735 0.4072561 0.3693504 -0.084342256 0.35882774 0.3348531 0.23074806
0.47792247 0.3252631 0.26701352 0.25476232 0.39505458 0.34249228 -0.08174058 0.13034706
0.14311898 0.31637442 0.2927691 0.4853818 0.31452647 0.1295221 0.3830553 -0.097489566
0.17238648 0.33401784 0.48996082 0.29482394 0.5111181 0.3388755 0.43102244 0.08905324
0.22692862 0.51260734 0.6503686 0.5079508 0.30094337 0.32655215 0.2688496 0.4492635
0.22154126 0.48041716 0.0071190307 0.29668766 0.37997082 0.36388543 0.084932245 0.45994282
0.19726986 -0.2647134 0.23559855 0.16682604 0.23177795 0.1839507 0.5473146 0.2526449
-0.08850543 8.824278e-05 0.1891258 -0.05372471 0.17654398 0.3296605 0.54461014 0.26589084
0.60010386 0.49633816 0.377944 0.3443316 0.16999002 0.58201593 -0.06975952 0.45526263
0.25738502 0.48656297 0.2032728 0.36543676 0.37582466 0.386846 0.1346165 0.2781893
0.31749374 0.54438937 0.4828636 0.53858906 0.40511003 -0.12407328 0.6310718 0.49106568
0.49239534 -0.0041354625 0.6797344 -0.028937513 0.67772305 0.48908356 0.47402227 -0.07349687
-0.053666662 0.19659819 0.21836922 -0.08422339 0.61190915 0.34942904 0.44301543 -0.040588498
0.4459975 -0.012134331 0.4771186 0.17926008 0.48357016 0.00299998 0.2908925 -0.0625841

fc2.weight f4 [10, 128]
00000000: 7242 073f 8a6e 883e f4ad 30be f4b6 1dbe
00000010: a039 e53d 97a1 843d 0197 a7bd ffbc fdbd
00000020: aee8 fdbe 2001 9cbd 6142 4d3d 9bd9 9fbd
00000030: d73a 2e3e 4471 3a3d 9d97 f2bc 078d 763c
00000040: cc1e 31be b1aa 8fbe 56b6 673e 9c43 e03d
00000050: 154a 86bd 609b b43d 3568 033e cbda 05bd
00000060: f2cf 473e d4cf 803e b4a0 b5be 3761 f6be
00000070: abd5 9cbe e030 12be 208e cb3a cd33 eb3d
00000080: a77e 4bbd a255 28bf 37b2 3dbe 49cb 58bd
00000090: 6718 9dbe c818 06bd 74b1 8c3d 65b7 3ebc
000000a0: 8710 f83b d929 2dbf 720e a43b 9208 a4bd
000000b0: 9c53 d0bd 266f a0bd 6965 c6bd c293 c53c
000000c0: 0460 acbe c05c 8bbe aa6b 933e 30dd 11be
000000d0: dd47 aabe 7686 c33d 6698 61be a24a 59bd
000000e0: 3960 d43d 9a98 633d cb08 6ebd 7a18 9abe
000000f0: e06f 58be 2ad6 65be 8e10 98bd 73d7 983e
00000100: 50bf 773e 70a3 11be 5310 93be b0d7 edbe
00000110: c67f 43be 5485 78be 5636 94bd 5023 993e
00000120: 9009 ecb9 34b2 6cbd c373 443d ffab 383d
00000130: f548 40bc a422 9fbd 5aa9 d03d 2bcf 17be
00000140: a6bd 063d 552a 083e 1206 f3be badd cc3d
00000150: 856d f3bc bb7f a33e 7f2b 513c 8911 0e3e
00000160: cdd5 fdbd 4174 e73d 07bd 073e db25 0abe
00000170: b326 afbd 905c 6d3d b07a c13d 7bb8 0d3f
00000180: da08 4f3d 7324 87bd 775e 03be 782e 523d
00000190: a2f0 c9bd cabf 9c3c 72d7 c5be 6e4b 09be
000001a0: 122a 583e 5fe4 b7bd 8520 103e d85a 69be
000001b0: 3992 1e3e abd0 66be 7db1 5a3d 05e6 a23d
000001c0: 8d38 89bd 5446 f8bc 384d acbd 2dbf 2a3d
000001d0: 56d5 d93d 76f8 b93e 0bf0 5abe e496 793d
000001e0: 467d 223e 20b9 69bc 5e8d 403e 6751 bdbd
000001f0: 291a 033e 5bf7 e1bd 9eef a1bd befd a3bc
00000200: 91d1 9abe 5451 80be 9524 f63d 7bd6 073b
00000210: ea46 6abe 8a27 bd3d 4a89 35be a44f 8f3e
00000220: 2436 d1be b14d 193f b61b babc 2b02 a4be
00000230: 6a2b e13d 32ed 9d3d 4eda 86be 2b95 d7bd
00000240: 455c cf3d 5519 823d 88b3 42be b123 acbe
00000250: 41a9 3fbd 3055 a1be 108e 09be bdc8 0bbf
00000260: b7eb 2f3e 1814 bebe be50 1d3d ab4c 6dbe
00000270: a09c 79be eb1c a93e 15b0 f7bd fa1b 27be
00000280: 1f66 8cbe a6e4 813d 95f6 e63c afbb 0cbe
00000290: e3a3 21be 83bf aebe 80f0 0d3d e2e9 19bd
000002a0: 7825 9d3d d939 ebbe a157 583e 805e 12bf
000002b0: 2f0e 903e 2b56 34be 3011 343e b87d 013f
000002c0: 7f0c 94be a4e6 193c 732c c5be 6d90 663b
000002d0: 50bb 583d 49f1 403e af39 8dbe f8a4 a8be
000002e0: 8d55 69bd eba8 5a3d d5f6 7b3d af54 2e3e
000002f0: 4050 a73e 69e0 413d 4b27 c2bd 8064 0abe
00000300: ed80 123d 5ec9 b83e ff76 2ebe 545e 0c3e
00000310: 3aa9 983d cef4 0b3d d06a 4bbe a9ee 08be
00000320: 016a 92bc ce6a e63c 81cf b53d 20a4 c03c
00000330: 4e70 ebbe 1cc4 413e 47ad 893c ed06 2c3e
00000340: 12f2 393d 4761 efbe 4294 813e c8fc 9dbd
00000350: 51b6 f1bd 1e6c 823e 2b13 ea3b 0659 a83d
00000360: 8a43 dd3d a74c 983d a5ef acbd 1ba9 903e
00000370: 92a8 b23e 6c89 c2bd 0fa1 05be 4141 b8bc
00000380: 3da8 b93c 41f5 b8bd cc2d 66be c47f 8f3d
00000390: 5629 32bc a965 673e 07d5 81be e7e6 493e
000003a0: 6fa8 3c3c 01e6 42bd 57a3 dfbd b538 e0be
000003b0: 4e63 8bbe 5f61 c33d ee74 9b3d 99ea 30bd
000003c0: 12ba 283d 6738 e3bd d1be 54be e26c b33e
000003d0: 6a3c 06be 7da7 5bbe 6ca4 bfbe 0439 523c
000003e0: 5d6e 33be bf22 e73c cd76 c43d 9c56 8cbe
000003f0: 822d fdbe 68af 07be d3a4 0f3f e87f 303c
0.5283576 0.26646835 -0.17253858 -0.15401822 0.11192632 0.06476133 -0.081830986 -0.12389564
-0.49591583 -0.07617402 0.050112132 -0.07805177 0.17014633 0.045518175 -0.02961331 0.015048272
-0.17296904 -0.28059915 0.2262815 0.109503955 -0.06557099 0.08818698 0.1283272 -0.03267936
0.19512919 0.2515856 -0.3547417 -0.48121044 -0.30631766 -0.14276457 0.0015530027 0.114844896
-0.049681332 -0.65755665 -0.18525015 -0.052928243 -0.3068268 -0.032738477 0.06869784 -0.011640404
0.0075703296 -0.6764198 0.005006605 -0.08009447 -0.10172197 -0.078337 -0.09687311 0.024118308
-0.33667004 -0.272192 0.2879308 -0.14244533 -0.33257952 0.09547131 -0.22030792 -0.05304969
0.103699155 0.055565454 -0.058113854 -0.300968 -0.21136427 -0.22444978 -0.074250326 0.29851875
0.24194074 -0.14222503 -0.28723392 -0.4645362 -0.1909171 -0.2426961 -0.07236926 0.29909754
-0.00045020552 -0.057787135 0.04796196 0.045085903 -0.011736144 -0.07770279 0.10188551 -0.14825122
0.032895707 0.13297398 -0.4746557 0.100032285 -0.029715309 0.31933388 0.012766718 0.13873877
-0.12394295 0.113014705 0.13255702 -0.13491003 -0.08552303 0.057949603 0.09447229 0.5535962
0.05054555 -0.06598749 -0.12829004 0.051313847 -0.0986035 0.01913442 -0.38640934 -0.1340768
0.21109799 -0.08979105 0.14074905 -0.2278856 0.15485467 -0.22540538 0.053391922 0.07954029
-0.06700239 -0.030306973 -0.08413166 0.041686226 0.10636394 0.36322373 -0.21380632 0.060934916
0.158681 -0.014265329 0.18803927 -0.09244042 0.12802948 -0.110335074 -0.079070315 -0.020018455
-0.3023801 -0.25062048 0.12018696 0.0020727206 -0.22878614 0.09236057 -0.17728153 0.27990448
-0.4086162 0.5988417 -0.022718292 -0.32032904 0.10994609 0.07711257 -0.26338428 -0.105264984
0.10125021 0.06352488 -0.19013798 -0.3362098 -0.046792272 -0.31510305 -0.13433099 -0.5460318
0.17179762 -0.37124705 0.03840708 -0.23173778 -0.24376154 0.33029875 -0.12094132 -0.16319266
-0.27421662 0.06342439 0.028193751 -0.1374347 -0.15785174 -0.34130487 0.034653187 -0.037576564
0.07673162 -0.45942572 0.21127178 -0.57175446 0.2813582 -0.17610995 0.17584682 0.50582457
-0.28915784 0.009393368 -0.38510475 0.00351813 0.05291301 0.18842043 -0.27583072 -0.3293836
-0.056966353 0.05338375 0.061514694 0.17024492 0.32678413 0.047333155 -0.09480151 -0.135149
0.035767484 0.3609113 -0.17037581 0.13707858 0.074541524 0.03416901 -0.19864964 -0.13372292
-0.017872812 0.0281271 0.08877469 0.02351576 -0.4598412 0.18922466 0.016806258 0.16799517
0.045396872 -0.46753904 0.25308424 -0.0771423 -0.11802352 0.25473112 0.0071433983 0.08220105
0.10803898 0.07436495 -0.08444146 0.28254017 0.34894234 -0.094988674 -0.1304972 -0.022492053
0.02266323 -0.090311535 -0.22478408 0.07006791 -0.010874113 0.22597374 -0.2535784 0.19716989
0.011514767 -0.04758263 -0.109198265 -0.43793264 -0.272242 0.095400564 0.07590662 -0.04319248
0.041193075 -0.11094742 -0.20775916 0.35044008 -0.13108984 -0.2145061 -0.3743013 0.012830976
-0.17522569 0.02821481 0.09592972 -0.27409828 -0.49448782 -0.13250506 0.56110877 0.010772683

fc2.bias f4 [10]
00000000: 6e01 cd3d 3486 17be d17c dabd e50c cd3d
00000010: b8f3 cf3c 52a3 313d 8f6d c83d 3c4c baba
00000020: feda 0bbe df3d 8f3d
0.10010038 -0.14797288 -0.10668338 0.10012225 0.025384769 0.043368645 0.09786522 -0.0014213393
-0.13657758 0.06994223
