cifar10/models/proposed.model (torch_old, 64031 bytes, 22 tensors)

conv1.weight f4 [8, 3, 3, 3]
-0.035849147 -0.077062994 0.22974457 0.11295481 -0.26288304 -0.07960341 -0.012877189 0.19288257
-0.06871062 -0.13507622 -0.11409566 0.20449565 0.28578934 -0.2367392 -0.14754207 -0.027426768
0.17214203 -0.028586451 -0.080615 -0.026375553 0.047126126 0.16220444 -0.2779696 0.051887043
0.040814023 0.22160219 -0.14609864 0.08300142 -0.23741809 0.11594841 -0.25098643 0.027935017
0.09326943 -0.09555566 0.071579024 -0.13880095 0.27701557 -0.30566466 0.025822565 -0.020158939
0.049724266 0.11536752 0.1131676 0.1982894 -0.022819689 0.1134929 -0.18257551 0.068826996
-0.15175325 -0.09061709 0.16456474 -0.20990025 0.18041457 -0.15544432 -0.21064222 0.034541994
0.12149094 -0.11424315 -0.14121233 -0.2691474 -0.1433054 -0.34631002 -0.15204594 -0.018139368
0.02092519 0.03398148 -0.14476205 0.060290236 0.25715703 -0.019240184 0.09189288 0.13942085
0.14523767 0.11350268 -0.18107481 0.3017528 0.06594209 0.10744353 0.12141041 0.22904913
0.03902494 0.13286576 -0.02405785 -0.06983042 0.23119748 0.113069355 0.18949588 -0.11068112
-0.26595324 -0.23234473 -0.2551064 0.030220672 0.013720074 0.12202311 0.31015038 0.11303896
0.036385786 -0.090507805 -0.21976785 -0.027888432 -0.10273273 -0.057727255 0.14665952 0.07315648
0.14784512 -0.17533149 0.033811323 -0.057005107 0.040993497 -0.20164229 -0.09719594 -0.30145153
0.13503169 0.20635895 0.2758125 0.14750716 -0.09361762 0.15595557 -0.24723388 0.07315929
-0.3441032 0.2596633 0.092497826 0.086502545 -0.03675264 -0.14817825 0.05800582 -0.15270446
0.05819644 -0.11910104 0.03574343 0.08351056 0.06453111 0.21663201 -0.06628097 0.041223507
0.030634627 0.22928888 0.08745575 0.26164418 -0.08021156 0.13341615 -0.10055978 -0.120137654
-0.18210384 0.1405548 -0.14531387 0.11454943 -0.11814248 -0.4993773 -0.17503612 -0.45550868
-0.042654727 -0.09465446 0.10497011 -0.019412883 0.059406336 0.06228819 -0.14127733 -0.06837609
-0.09106952 0.36254877 0.04159244 0.07888311 -0.0021778971 0.22543187 -0.009130081 -0.23998606
0.03791595 -0.12209134 0.017169451 0.00984452 0.039106753 -0.09616818 0.24571976 -0.06173134
-0.11867082 0.27518675 -0.20647995 -0.15313186 0.077704094 0.1718566 -0.29254067 0.23679249
-0.014676067 -0.21163037 0.1632307 0.06870713 -0.15593311 -0.16753988 0.10951011 -0.11861936
-0.16194923 0.20783749 -0.11471696 -0.01823316 0.2647958 0.047995005 0.022595353 0.2905001
-0.10315482 -0.13380593 0.27955982 -0.13592188 -0.20248535 0.10775423 -0.2507173 -0.15857558
0.18793342 -0.06218341 -0.06007467 0.14914666 -0.08442765 -0.05532949 0.19680381 -0.09052895
00000000: 8ed6 12bd 34d3 9dbd 2942 6b3e da54 e73d
00000010: 9b98 86be 1d07 a3bd d8fa 52bc 0283 453e
00000020: 27b8 8cbd 6c51 0abe fcaa e9bd 4f67 513e
00000030: fb52 923e c36b 72be 4515 17be 1aae e0bc
00000040: 0046 303e 222e eabc 7a19 a5bd 8b11 d8bc
00000050: 5307 413d ec18 263e 0852 8ebe 8287 543d
00000060: 9b2c 273d afeb 623e e29a 15be a6fc a93d
00000070: ba1d 73be 5c76 ed3d 4b81 80be fad7 e43c
00000080: 0b04 bf3d b0b2 c3bd 0698 923d d621 0ebe
00000090: fcd4 8d3e 1480 9cbe d889 d33c 5c24 a5bc
000000a0: acab 4b3d ce45 ec3d 6ac4 e73d 600c 4b3e
000000b0: 5bf0 babc f76e e83d 13f5 3abe 2bf5 8c3d
000000c0: 3465 1bbe 7495 b9bd a983 283e 17f0 56be
000000d0: 99be 383e cc2c 1fbe 98b2 57be e87b 0d3d
000000e0: 3ed0 f83d 50f8 e9bd f799 10be b0cd 89be
000000f0: a7be 12be 8c4f b1be eeb1 1bbe 0399 94bc
00000100: 4e6b ab3c 2a30 0b3d 813c 14be e5f2 763d
00000110: 16aa 833e 979d 9dbc 5632 bc3d 57c4 0e3e
00000120: 2fb9 143e 1874 e83d ad6b 39be 587f 9a3e
00000130: a50c 873d 5a0b dc3d 05a6 f83d db8b 6a3e
00000140: 9ed8 1f3d f60d 083e f814 c5bc 4003 8fbd
00000150: 08bf 6c3e e890 e73d 350b 423e c8ac e2bd
00000160: 062b 88be c7eb 6dbe 4e9d 82be 5891 f73c
00000170: 29ca 603c 41e7 f93d 08cc 9e3e f880 e73d
00000180: 4309 153d 285c b9bd d30a 61be 4876 e4bc
00000190: 8a65 d2bd 6a73 6cbd ea2d 163e 11d3 953d
000001a0: b664 173e 198a 33be be7d 0a3d 307e 69bd
000001b0: cce8 273d 517b 4ebe aa0e c7bd db57 9abe
000001c0: bf45 0a3e c34f 533e 4c37 8d3e 1e0c 173e
000001d0: 98ba bfbd d1b2 1f3e e12a 7dbe 8ad4 953d
000001e0: 4b2e b0be 97f2 843e 806f bd3d 3f28 b13d
000001f0: f089 16bd 0abc 17be 8397 6d3d 8f5e 1cbe
00000200: 645f 6e3d 3feb f3bd b467 123d 9607 ab3d
00000210: e328 843d c8d4 5d3e 51be 87bd fbd9 283d
00000220: 78f5 fa3c b4ca 6a3e 001c b33d 3af6 853e
00000230: f545 a4bd 3e9e 083e 49f2 cdbd bb0a f6bd
00000240: 6e79 3abe 99ed 0f3e 29cd 14be e498 ea3d
00000250: aff4 f1bd 62ae ffbe ab3c 33be 6f38 e9be
00000260: b9b6 2ebd 33da c1bd 92fa d63d c407 9fbc
00000270: 0f54 733d e721 7f3d 01ab 10be c308 8cbd
00000280: a882 babd fe9f b93e d65c 2a3d 788d a13d
00000290: 0dbb 0ebb 9dd7 663e 5696 15bc e8be 75be
000002a0: c14d 1b3d 060b fabd f3a6 8c3c e94a 213c
000002b0: 672e 203d d3f3 c4bd f69d 7b3e 00da 7cbd
000002c0: b009 f3bd 47e5 8c3e 7b6f 53be 99ce 1cbe
000002d0: 5323 9f3d 2dfb 2f3e e4c7 95be bb79 723e
000002e0: e373 70bc a2b5 58be f325 273e 53b6 8c3d
000002f0: eeac 1fbe 938f 2bbe d646 e03d b5ee f2bd
00000300: 05d6 25be 5ad3 543e baf0 eabd b55d 95bc
00000310: 5193 873e 6996 443d e419 b93c 6ebc 943e
00000320: d642 d3bd 6c04 09be 7722 8f3e 1b2f 0bbe
00000330: 5258 4fbe 40ae dc3d 055e 80be a361 22be
00000340: 9e71 403e 08b4 7ebd db10 76bd e7b9 183e
00000350: 67e8 acbd 2da1 62bd f086 493e 3e67 b9bd

conv1.bias f4 [8]
0.09101606 -0.05064989 0.15188186 -0.12372314 -0.17724316 -0.0035933554 0.044199828 0.12340494
00000000: a166 ba3d 4276 4fbd eb86 1b3e 8f62 fdbd
00000010: 3b7f 35be 807e 6bbb e10a 353d bbbb fc3d

conv1_bn.weight f4 [8]
0.8020153 0.71968967 0.72879654 0.88455915 0.7547197 0.80950606 0.8031553 1.2017611
00000000: e050 4d3f 953d 383f 6992 3a3f 7872 623f
00000010: 4f35 413f ca3b 4f3f 969b 4d3f 4fd3 993f

conv1_bn.bias f4 [8]
-0.027298965 0.49887598 0.46564457 -0.035465162 0.2980695 0.89038444 -0.05579004 -0.00868527
00000000: 14a2 dfbc ac6c ff3e f768 ee3e eb43 11bd
00000010: 919c 983e 3cf0 633f 1984 64bd aa4c 0ebc

conv1_bn.running_mean f4 [8]
0.08957273 -0.031697102 0.12966707 -0.11232447 -0.20766897 0.14154157 0.045502715 0.1450697
00000000: e871 b73d d2d4 01bd 72c7 043e 5f0a e6bd
00000010: 2da7 54be 46f0 103e 0e61 3a3d 278d 143e

conv1_bn.running_var f4 [8]
0.10964332 0.09319485 0.47030097 0.3102165 0.16186453 0.70422214 0.76611876 0.30742642
00000000: ad8c e03d f1dc be3d 4acb f03e b2d4 9e3e
00000010: d1bf 253e e747 343f 5c20 443f ff66 9d3e

conv2.weight f4 [16, 8, 3, 3]
0.06685195 0.004357963 0.057593018 0.12115868 0.2281898 0.08537203 0.15123245 0.14572796
0.05282272 -0.059502844 0.019846158 -0.07895234 -0.05454383 0.011270893 -0.04208392 -0.016689401
0.009789753 0.029947529 0.12279227 -0.19488205 -0.2827107 0.34666565 0.07059897 -0.24361444
0.34486118 0.3201134 -0.18270636 -0.20689031 -0.14445044 -0.10995598 -0.28502324 -0.27562228
-0.28744826 -0.40788072 -0.054803073 -0.334229 -0.0856926 -0.04424525 -0.024543606 -0.18707679
-0.13404046 0.00470035 -0.16443387 -0.17844845 -0.10657135 -0.19619542 -0.076726176 -0.1859421
-0.1288902 -0.016968098 -0.16620857 0.2011376 0.09660084 -0.12772696 0.059738394 0.017927958
0.15687159 -0.009454795 0.011964691 -0.012056404 -0.050602097 0.045646444 0.1577054 -0.02011144
-0.062354323 -0.05569476 0.01042308 -0.07110701 -0.048317034 -0.06354516 -0.06372282 -0.008117477
0.26478642 0.1486935 0.16972254 0.21868716 0.40055203 0.26242393 0.14648728 0.2892345
0.302118 0.032129925 -0.0144200325 -0.13275407 -0.028631587 0.036939923 -0.12978204 -0.145424
-0.19591653 -0.06901094 -0.005505171 0.14927368 0.05202173 -0.12864189 -0.04853886 0.34344193
-0.029875435 -0.21857333 0.046861846 0.004488627 -0.044065993 -0.13245651 -0.13539563 -0.16609907
-0.06775836 -0.057252333 -0.2651716 0.05155527 -0.14252187 -0.1019674 0.11248137 -0.042271588
-0.33225995 -0.09887062 -0.046891272 -0.16715942 -0.17310566 0.011499639 -0.15673545 -0.14436425
0.09938517 0.04589366 -0.19552009 0.011206641 0.08443837 0.17752141 -0.08425296 0.04082586
0.16754377 0.01230755 -0.034386076 -0.064769626 -0.118790634 -0.015253058 -0.12241744 -0.01113691
-0.00963044 -0.033463437 -0.12651259 -0.21099032 -0.086323485 -0.11419666 -0.13949002 -0.049196042
0.09407275 -0.10383928 0.07382955 0.23761004 0.13639997 0.06955329 0.15460151 0.23022224
0.08626365 -0.075736456 -0.3722346 -0.13089097 0.02856804 -0.02974348 -0.0032957338 -0.022914896
0.15423879 -0.10390131 0.14839457 0.050292358 0.06389623 0.053697612 0.013667817 -0.091103
0.31120083 0.25954422 0.12323949 0.12585162 0.0034289747 0.24505231 0.18610941 0.03777875
0.19522552 0.15930772 0.040460024 0.01796178 0.104626805 0.040112734 0.095110916 0.2145037
0.09958008 0.23915689 0.2234146 0.20214191 0.29376012 0.11498364 0.0020259276 0.060096584
-0.110341415 0.07517526 0.0041638645 -0.0035079115 -0.092337206 -0.27828312 0.1874872 -0.08015939
-0.12232599 -0.004241057 0.070540175 -0.14296547 0.1863483 0.33264104 -0.0880676 -0.007766349
-0.11725966 0.04134696 0.0028937014 -0.13443398 0.013655931 0.21389467 0.3623737 0.24523687
0.07468672 0.04974746 0.04748 -0.07148287 -0.18095116 -0.09084891 -0.018180903 0.029271727
0.035178404 -0.17875934 -0.16456236 -0.033092976 -0.35652006 -0.57952356 -0.22501414 0.06144161
-0.23300435 -0.05566263 0.009320863 0.07043221 0.0047908477 0.040784698 0.12346045 0.08941954
0.21646772 0.03971941 0.028417693 0.014058979 0.0074944687 0.017422747 -0.011365028 -0.111578956
0.11603092 -0.11076246 0.057985816 -0.00381955 0.0045608752 0.0806443 0.038078576 0.1620299
00000000: ade9 883d 3ecd 8e3b a8e6 6b3d 0b22 f83d
00000010: 96aa 693e 88d7 ae3d aedc 1a3e b639 153e
00000020: a35c 583d 41b9 73bd 6994 a23c c4b1 a1bd
00000030: 5a69 5fbd 8da9 383c 3060 2cbd 36b8 88bc
00000040: 3365 203c 8554 f53c 837a fb3d 298f 47be
00000050: 75bf 90be 297e b13e 3196 903d 1076 79be
00000060: a591 b03e e7e5 a33e 6017 3bbe 0edb 53be
00000070: d1ea 13be 9a30 e1bd 91ee 91be 5d1e 8dbe
00000080: 6b2c 93be bed5 d0be 3079 60bd 1020 abbe
00000090: 9a7f afbd 823a 35bd ac0f c9bc 0f91 3fbe
000000a0: e741 09be 6505 9a3b 5a61 28be 31bb 36be
000000b0: 1442 dabd 74e7 48be 9d22 9dbd 9b67 3ebe
000000c0: cbfb 03be ae00 8bbc 9432 2abe 04f7 4d3e
000000d0: a9d6 c53d dbca 02be 3fb0 743d a7dd 923c
000000e0: f2a2 203e 49e8 1abc 8d07 443c 3988 45bc
000000f0: 2544 4fbd c4f7 3a3d 867d 213e bfc0 a4bc
00000100: 3f67 7fbd 3020 64bd 91c5 2a3c 8da0 91bd
00000110: 15e8 45bd f723 82bd 1c81 82bd 2bff 04bc
00000120: 1692 873e 1c43 183e bfcb 2d3e 87ef 5f3e
00000130: 2815 cd3e 6e5c 863e c300 163e 8b16 943e
00000140: 36af 9a3e ab9a 033d 0042 6cbc aff0 07be
00000150: ca8c eabc 514e 173d 95e5 04be 07ea 14be
00000160: 589e 48be 9c55 8dbd b964 b4bb 33db 183e
00000170: bd14 553d b3ba 03be afd0 46bd 9fd7 af3e
00000180: 54bd f4bc b0d1 5fbe 35f2 3f3d 5515 933b
00000190: 8b7e 34bd aea2 07be 27a5 0abe e015 2abe
000001a0: e5c4 8abd 6c81 6abd 92c4 87be 9e2b 533d
000001b0: 41f1 11be 49d4 d0bd a25c e63d f924 2dbd
000001c0: fa1d aabe ae7c cabd 1011 40bd d72b 2bbe
000001d0: 9c42 31be fb68 3c3c 427f 20be 39d4 13be
000001e0: 748a cb3d fefa 3b3d 6b36 48be 0f9c 373c
000001f0: 06ee ac3d 2cc8 353e d18c acbd 0439 273d
00000200: 9890 2b3e 9ba5 493c 6ad8 0cbd f0a5 84bd
00000210: 8148 f3bd f6e7 79bc ffb5 fabd 9677 36bc
00000220: fec8 1dbc f510 09bd 848c 01be d90d 58be
00000230: 5eca b0bd f0df e9bd 79d6 0ebe ca81 49bd
00000240: 37a9 c03d b0a9 d4bd f233 973d 0c50 733e
00000250: 6fac 0b3e f571 8e3d dc4f 1e3e 61bf 6b3e
00000260: ffaa b03d b71b 9bbd 8995 bebe 4808 06be
00000270: 8607 ea3c 99a8 f3bc 3dfd 57bb 05b8 bbbc
00000280: c6f0 1d3e 36ca d4bd bff4 173e 5cff 4d3d
00000290: 07dc 823d 07f2 5b3d fbee 5f3c 3694 babd
000002a0: b755 9f3e fbe2 843e fc64 fc3d 3fdf 003e
000002b0: a6b8 603b feee 7a3e 7793 3e3e e4bd 1a3d
000002c0: 33e9 473e 9021 233e 69b9 253d 9524 933c
000002d0: 9446 d63d 404d 243d 83c9 c23d dca6 5b3e
000002e0: a4f0 cb3d 8be5 743e ccc6 643e 4afe 4e3e
000002f0: ba67 963e 8b7c eb3d 6dc5 043b d627 763d
00000300: aefa e1bd 7df5 993d 0771 883b fde4 65bb
00000310: 4a1b bdbd 207b 8ebe a5fc 3f3e 9b2a a4bd
00000320: 0c86 fabd 91f8 8abb 5e77 903d 8a65 12be
00000330: 17d2 3e3e ed4f aa3e c95c b4bd db7c febb
00000340: d525 f0bd 6e5b 293d 41a4 3d3b 10a9 09be
00000350: 20bd 5f3c 3407 5b3e 0c89 b93e 601f 7b3e
00000360: 5af5 983d fec3 4b3d 637a 423d 9c65 92bd
00000370: 434b 39be fe0e babd 1ef0 94bc 43cb ef3c
00000380: 3b17 103d b00c 37be 0983 28be 808c 07bd
00000390: cc89 b6be a85b 14bf 1b6a 66be 33aa 7b3d
000003a0: b198 6ebe 7ffe 63bd 88b6 183c c33e 903d
000003b0: 8bfc 9c3b db0d 273d d5d8 fc3d 9721 b73d
000003c0: b7a9 5d3e d2b0 223d 39cc e83c a257 663c
000003d0: 2994 f53b 26ba 8e3c 6234 3abc 8283 e4bd
000003e0: 9ea1 ed3d 6ed7 e2bd 8982 6d3d 6a51 7abb
000003f0: 6573 953b d728 a53d 48f8 1b3d 2beb 253e

conv2.bias f4 [16]
0.05431259 -0.092504345 -0.029714132 -0.10125961 -0.006679287 -0.109354615 -0.054939993 0.043964982
-0.06868614 0.064258456 0.09373638 -0.11021209 0.09304815 -0.030543176 0.04586487 -0.082300775
00000000: e176 5e3d eb72 bdbd 0d6b f3bc 3361 cfbd
00000010: ecdd dabb 50f5 dfbd c208 61bd a014 343d
00000020: 52ab 8cbd f099 833d dcf8 bf3d e0b6 e1bd
00000030: 0790 be3d af35 fabc cddc 3b3d 4f8d a8bd

conv2_bn.weight f4 [16]
0.6927652 0.55112827 0.37004596 0.55735135 0.5719266 1.1660097 0.43759498 0.43082964
0.8890779 0.4348271 0.4504039 0.7390407 0.49159333 0.43004423 0.6962239 0.95740205
00000000: 0f59 313f be16 0d3f aa76 bd3e 94ae 0e3f
00000010: c869 123f ce3f 953f 730c e03e b495 dc3e
00000020: 9c9a 633f a8a1 de3e 579b e63e c531 3d3f
00000030: 1fb2 fb3e c22e dc3e bb3b 323f 4d18 753f

conv2_bn.bias f4 [16]
-0.060258795 -0.1501147 0.4325962 -0.30465668 -0.0686392 -0.45657682 0.17028531 -0.019775948
-0.30369124 0.31668654 0.029915735 -0.20490827 0.22003159 0.11036268 0.21369089 -0.5504908
00000000: edd1 76bd abb7 19be 407d dd3e f6fb 9bbe
00000010: b592 8cbd 70c4 e9be 465f 2e3e 2b01 a2bc
00000020: 6b7d 9bbe bd24 a23e d811 f53c 79d3 51be
00000030: f64f 613e d405 e23d c9d1 5a3e f7ec 0cbf

conv2_bn.running_mean f4 [16]
-1.7657229 -1.0883162 2.2992463 0.17358556 0.52841187 -1.5129043 -0.7189845 -0.5245634
-1.4740635 0.5280021 0.55652124 -0.26436803 -0.8913228 2.485533 -1.2790941 -3.8299525
00000000: 3503 e2bf f24d 8bbf da26 1340 6ac0 313e
00000010: 0046 073f d9a6 c1bf 5e0f 38bf c949 06bf
00000020: 1dae bcbf 252b 073f 2d78 0e3f 3f5b 87be
00000030: bb2d 64bf f912 1f40 5bb9 a3bf f11d 75c0

conv2_bn.running_var f4 [16]
0.9035617 0.60044 1.9639592 0.97983545 0.7561591 3.9758923 0.5539225 0.40903842
1.20145 0.9592527 1.3282948 0.8289816 0.7999958 2.4679039 1.3890887 2.9411275
00000000: d24f 673f 70b6 193f 0463 fb3f 7fd6 7a3f
00000010: a593 413f 0575 7e40 ddcd 0d3f 7c6d d13e
00000020: 1dc9 993f 9691 753f 9005 aa3f 2338 543f
00000030: 86cc 4c3f 23f2 1d40 a9cd b13f 6f3b 3c40

conv3.weight f4 [32, 16, 3, 3]
-0.16034961 -0.084606335 0.34400645 -0.021456227 0.062564716 0.1453747 -0.053290926 -0.028009253
0.06237309 -0.14108394 0.1025538 -0.042788073 -0.110211745 -0.04512156 0.046812266 0.0067767752
-0.12754147 -0.027499668 0.050290048 -0.15229426 -0.22979985 0.028297774 -0.05240431 -0.037703205
0.08334891 0.023409322 -0.06754635 0.021030117 0.3467903 -0.29919904 -0.23428003 0.107666165
-0.26739338 -0.023152325 0.07811878 -0.25907046 -0.036101654 -0.1581433 0.08246317 -0.033164058
0.0025074615 0.06372046 -0.0712465 0.12283314 0.09408638 0.18481828 0.44302332 -0.39930403
0.057890635 0.24295227 -0.1948959 -0.032282174 0.07770451 -0.105288684 0.36623886 0.10117377
-0.1488941 0.07563782 0.11353885 0.04397188 0.04652356 0.1942675 0.25773197 0.060327925
0.31466785 0.11401637 -0.062778525 -0.014284491 -0.04190153 -0.024775613 -0.0015055417 0.047868367
-0.104449354 0.17533307 -0.15394698 0.022950696 -0.0832132 -0.21198942 -0.07297686 -0.1307886
-0.01716191 0.16862336 0.09247555 -0.06966672 -0.07461769 -0.14348345 -0.1628466 0.044990785
-0.119705975 -0.116563536 0.0021737276 0.14198552 0.08668543 -0.12366803 0.10030567 -0.014525442
-0.0076995315 0.108499005 0.092033625 0.15328705 0.012159918 -0.023824334 -0.04344641 -0.09653913
-0.014169771 -0.15695545 -0.0076808166 -0.081767164 -0.018003851 -0.06941793 0.20628639 -0.09259601
-0.022786174 -0.0150708 0.10489994 0.03123373 -0.06869797 -0.045297716 0.13433819 -0.31034088
0.0065103653 0.01862433 -0.22267896 -0.12400324 -0.052762195 0.1310054 -0.08931447 -0.3594944
0.37217596 0.0004322439 -0.11749535 0.10407962 0.008255042 -0.06128234 -0.15747581 -0.2820967
-0.180649 0.2400968 -0.46179843 -0.10837124 0.19595943 -0.2698836 -0.016571987 0.086444594
-0.08000811 0.09349085 0.057053443 -0.053294543 0.123976745 -0.06967878 -0.14862728 -0.121926524
-0.34064472 0.032166712 -0.03766127 0.063126154 -0.14690553 0.12514748 -0.053398322 0.076828934
-0.057701677 -0.069189414 0.024251366 0.11292848 0.09786158 -0.2430918 -0.18093224 0.02994373
-0.103450626 0.056140527 0.026320923 -0.023609262 -0.08562582 0.034951944 0.15768753 0.08705295
0.069203325 -0.1883135 -0.20294468 -0.0011536127 0.04416042 -0.043796774 -0.01447195 -0.08682901
-0.22267057 0.055882588 -0.20971811 0.110194 0.05036615 0.066197984 -0.09360404 -0.012787973
-0.41590816 -0.1898981 0.14123864 -0.1672473 0.07919846 0.47879037 0.04037396 0.040464345
-0.004893871 -0.01295357 0.049325667 0.1333192 -0.12428823 0.16593681 0.06330306 0.08348265
-0.03369896 -0.047906753 0.1711094 0.061032716 -0.13881129 0.059901997 -0.17558718 -0.30238968
-0.15595011 -0.04597766 0.0787549 -0.28294718 0.027204776 0.20578153 -0.292019 0.01942221
0.19130954 0.0019648587 -0.037882272 -0.010887523 0.2261959 0.10578449 -0.17039388 0.33762598
-0.0704136 -0.17274821 -0.06456612 0.0069401036 -0.03751015 -0.19907607 -0.0061379997 0.029840894
0.10950828 0.15636875 0.21376877 0.05113098 -0.008943789 -0.030839197 0.10383267 -0.22898518
-0.02089026 -0.29574698 -0.32212755 0.059826117 0.032943595 0.008691936 -0.030318875 -0.10117075
00000000: b032 24be 1646 adbd 9d21 b03e f8c4 afbc
00000010: ee21 803d 1bdd 143e 9647 5abd a973 e5bc
00000020: ed7a 7f3d 4f78 10be ba07 d23d 8c42 2fbd
00000030: b2b6 e1bd 63d1 38bd 38be 3f3d b60f de3b
00000040: 3b9a 02be fc46 e1bc f0fc 4d3d 07f3 1bbe
00000050: a750 6bbe bcd0 e73c e7a5 56bd ad6e 1abd
00000060: d5b2 aa3d e8c4 bf3c be55 8abd 5a47 ac3c
00000070: 808e b13e 9e30 99be 1be7 6fbe 1480 dc3d
00000080: c9e7 88be f2a9 bdbc bdfc 9f3d e2a4 84be
00000090: 54df 13bd 51f0 21be 73e2 a83d 09d7 07bd
000000a0: 3954 243b df7f 823d afe9 91bd f18f fb3d
000000b0: 5cb0 c03d 0141 3d3e f4d3 e23e 9471 ccbe
000000c0: bb1e 6d3d 7bc8 783e ca92 47be 503a 04bd
000000d0: 8b23 9f3d 98a1 d7bd a983 bb3e 3234 cf3d
000000e0: b277 18be 00e8 9a3d 0e87 e83d dc1b 343d
000000f0: 7d8f 3e3d 0fee 463e 72f5 833e 6a1a 773d
00000100: 251c a13e 6a81 e93d 0792 80bd 7f09 6abc
00000110: f0a0 2bbd 3af6 cabc 9955 c5ba 9f11 443d
00000120: 8be9 d5bd 838a 333e 47a4 1dbe 1903 bc3c
00000130: af6b aabd c113 59be e474 95bd 72ed 05be
00000140: 2297 8cbc 9aab 2c3e d263 bd3d 6dad 8ebd
00000150: 29d1 98bd 53ed 12be 42c1 26be 4248 383d
00000160: 6828 f5bd ddb8 eebd 1975 0e3b a764 113e
00000170: 2188 b13d aa45 fdbd 0f6d cd3d 1ffc 6dbc
00000180: 5a4c fcbb ba34 de3d 207c bc3d 48f7 1c3e
00000190: 653a 473c 402b c3bc ddf4 31bd 4fb6 c5bd
000001a0: 5428 68bc eeb8 20be 5caf fbbb 8b75 a7bd
000001b0: d07c 93bc fd2a 8ebd bd3c 533e faa2 bdbd
000001c0: 12aa babc 84eb 76bc c8d5 d63d e1dd ff3c
000001d0: 85b1 8cbd 198a 39bd f38f 093e 00e5 9ebe
000001e0: e754 d53b 0d92 983c f405 64be 69f5 fdbd
000001f0: 2c1d 58bd 4826 063e 81ea b6bd a60f b8be
00000200: d98d be3e cb9e e239 67a1 f0bd b227 d53d
00000210: 2840 073c 3103 7bbd 5741 21be fb6e 90be
00000220: 0dfc 38be efdb 753e d870 ecbe bef1 ddbd
00000230: 97a9 483e 2f2e 8abe fac1 87bc dd09 b13d
00000240: 4bdb a3bd 2178 bf3d dfb0 693d 614b 5abd
00000250: 85e7 fd3d c0b3 8ebd c031 18be 9db4 f9bd
00000260: fc68 aebe 3ec1 033d b442 1abd 4948 813d
00000270: 676e 16be a926 003e 33b8 5abd 7d58 9d3d
00000280: 9858 6cbd 2eb3 8dbd cdaa c63c 0c47 e73d
00000290: a76b c83d 0fed 78be 4d46 39be 8e4c f53c
000002a0: ecdd d3bd 9cf3 653d fa9e d73c 3668 c1bc
000002b0: 975c afbd c529 0f3d d778 213e d148 b23d
000002c0: 79ba 8d3d 41d5 40be bbd0 4fbe d234 97ba
000002d0: 8ee1 343d 3f64 33bd c21b 6dbc 68d3 b1bd
000002e0: c103 64be 24e5 643d 58c0 56be 64ad e13d
000002f0: bc4c 4e3d cf92 873d 7ab3 bfbd a584 51bc
00000300: eaf1 d4be a674 42be dda0 103e e042 2bbe
00000310: cd32 a23d 0324 f53e 2a5f 253d f1bd 253d
00000320: c45c a0bb 363b 54bc b609 4a3d d484 083e
00000330: d48a febd 57eb 293e 09a5 813d f4f8 aa3d
00000340: ec07 0abd df39 44bd 4d37 2f3e 71fd 793d
00000350: 8c24 0ebe cc5b 753d 20cd 33be d2d2 9abe
00000360: 63b1 1fbe 1253 3cbd 404a a13d 74de 90be
00000370: 8ddc de3c 65b8 523e 8483 95be 541b 9f3c
00000380: a6e6 433e dcc4 003b 712a 1bbd 9561 32bc
00000390: e69f 673e 8aa5 d83d bc7b 2ebe 50dd ac3e
000003a0: 0135 90bd e8e4 30be 3e3b 84bd cf69 e33b
000003b0: 3ea4 19bd 99da 4bbe 4621 c9bb e474 f43c
000003c0: e145 e03d 211f 203e 33e6 5a3e b86e 513d
000003d0: f888 12bc 7ca2 fcbc 39a6 d43d 177b 6abe
000003e0: 0d22 abbc 266c 97be e7ed a4be 3b0c 753d
000003f0: ddef 063d 9f68 0e3c 4a5f f8bc 9c32 cfbd

conv3.bias f4 [32]
-0.07626775 -0.07433222 -0.0055266856 -0.0772093 -0.039546676 0.051961027 0.059373535 -0.046574768
-0.08173 0.041431736 0.07545979 0.07108675 0.039424304 0.051788796 0.0072398395 0.00979741
-0.056972977 0.03364922 -0.062350266 -0.0055121635 -0.037960906 0.037387963 -0.0220113 0.058238592
-0.005112118 -0.010840378 0.07580413 -0.059608802 0.0030714814 -0.060549647 0.005071697 0.047373127
00000000: 4432 9cbd 7e3b 98bd 3319 b5bb e91f 9ebd
00000010: b2fb 21bd 16d5 543d aa31 733d 2fc5 3ebd
00000020: 0f62 a7bd 53b4 293d aa8a 9a3d ee95 913d
00000030: 617b 213d 7d20 543d 2d3c ed3b 5185 203c
00000040: 7f5c 69bd c4d3 093d fe62 7fbd 619f b4bb
00000050: e57c 1bbd 1f24 193d 0b51 b4bc 978b 6e3d
00000060: 8e83 a7bb d79b 31bc 323f 9b3d 5c28 74bd
00000070: e84a 493b e802 78bd 7a30 a63b 530a 423d

conv3_bn.weight f4 [32]
0.84896934 0.92788965 0.84455246 0.7040068 0.93531704 0.98860914 1.0012487 0.9174935
0.9103191 0.78881603 0.9793818 0.97920763 0.973101 0.8308114 0.96989626 0.9131526
0.9998734 1.1462616 0.7993825 0.8267548 1.036184 0.99259514 0.807446 0.7453208
1.0527444 1.0943685 0.86955297 1.2094284 0.8681273 0.93930745 0.98794127 0.6647706
00000000: 0e56 593f 2d8a 6d3f 9734 583f ca39 343f
00000010: f070 6f3f 7d15 7d3f eb28 803f dbe0 6a3f
00000020: ac0a 693f d9ef 493f c4b8 7a3f 5aad 7a3f
00000030: 261d 793f 0eb0 543f 1f4b 783f 5ec4 693f
00000040: b4f7 7f3f b3b8 923f 55a4 4c3f 34a6 533f
00000050: ada1 843f b71a 7e3f c8b4 4e3f 58cd 3e3f
00000060: 54c0 863f 4414 8c3f 069b 5e3f 8dce 9a3f
00000070: 973d 5e3f 7476 703f b8e9 7c3f 682e 2a3f

conv3_bn.bias f4 [32]
-0.404864 -0.9991247 -0.4460526 1.2666374 -0.84148234 -0.29598626 -0.90313244 -0.41096327
-0.46382797 -0.056682684 -0.37946242 -1.0204208 -0.648631 -0.2875062 -0.62453127 -0.50860995
-1.0339338 -0.7389218 -0.030091032 0.17009994 -0.65409267 -1.1894757 0.077879444 -0.15167767
-0.45265773 -0.62860805 0.027067155 -0.34177727 0.15870544 -0.43389404 -0.6972392 0.010849688
00000000: 564a cfbe a3c6 7fbf 0261 e4be 2d21 a23f
00000010: 636b 57bf 838b 97be b033 67bf c769 d2be
00000020: dc7a edbe 1a2c 68bd e648 c2be 269d 82bf
00000030: ae0c 26bf 0334 93be 48e1 1fbf 4334 02bf
00000040: f157 84bf fb29 3dbf 7881 f6bc ae2e 2e3e
00000050: 9e72 27bf bd40 98bf 427f 9f3d 6451 1bbe
00000060: c1c2 e7be 75ec 20bf f0bb dd3c 6efd aebe
00000070: ae83 223e 5c27 debe 457e 32bf e4c2 313c

conv3_bn.running_mean f4 [32]
-0.46038237 -1.2601174 -0.20361742 -1.5104151 0.32215512 -2.3972578 -0.39787042 -2.1326575
-0.07610843 -0.40224382 -1.2470447 -1.4000056 -0.4809412 -1.101088 -1.9848095 -1.1779146
-2.0209913 -0.3996651 -0.9785675 -1.5963874 -1.8434951 -1.2461251 -0.031813897 -0.02270688
-2.34661 -1.2141283 -3.2180388 -1.8840389 -1.5729955 2.7332273 -0.7480292 0.2670047
00000000: 3db7 ebbe 874b a1bf 1681 50be 4855 c1bf
00000010: 84f1 a43e ac6c 19c0 acb5 cbbe 767d 08c0
00000020: bdde 9bbd e7f2 cdbe 299f 9fbf 6233 b3bf
00000030: ed3d f6be 74f0 8cbf 3d0e febf e8c5 96bf
00000040: ec57 01c0 e7a0 ccbe 6683 7abf 6c56 ccbf
00000050: a6f7 ebbf 0781 9fbf 4a4f 02bd c703 babc
00000060: dc2e 16c0 8e68 9bbf 59f4 4dc0 3028 f1bf
00000070: eb57 c9bf 32ed 2e40 d77e 3fbf d7b4 883e

conv3_bn.running_var f4 [32]
0.3093262 0.47539198 0.7191148 0.86158264 0.39277962 0.75470954 0.7752146 0.62748563
0.4447106 0.48604056 0.7130754 0.8842611 0.3909085 0.56774276 0.51876783 0.5494149
1.114644 0.52454954 0.50259244 0.52081895 0.8532721 0.5621303 0.5108649 0.51878166
0.9587436 0.56590605 0.7458107 1.0815594 0.5320755 0.7054248 0.34901422 0.46409345
00000000: 0160 9e3e 9466 f33e e817 383f ae90 5c3f
00000010: 691a c93e a534 413f 7774 463f e6a2 203f
00000020: 1cb1 e33e 4fda f83e 1c8c 363f ef5e 623f
00000030: 2925 c83e 9757 113f f8cd 043f 74a6 0c3f
00000040: a8ac 8e3f e148 063f e6a9 003f 6454 053f
00000050: 0a70 5a3f c5e7 0f3f 0bc8 023f e0ce 043f
00000060: 3870 753f 38df 103f 73ed 3e3f 8a70 8a3f
00000070: 1a36 083f b896 343f feb1 b23e a89d ed3e

fc1.weight f4 [64, 128]
-0.2107609 -0.77968705 -0.8711595 -0.40708974 0.14515725 0.22133295 0.37452093 0.11213383
0.24178272 -0.39566898 0.032803718 -0.15308546 0.21090785 0.5247155 0.05597612 0.34978804
0.5720652 0.59762675 0.46070957 0.8578549 -0.17753372 -0.8504419 -0.5575942 -0.4937135
-0.14384297 -0.20631963 -0.5222974 -0.15255189 -0.24342972 -0.03931002 0.13275935 -0.43942532
0.42569768 0.5412683 0.3202171 0.37630737 0.06713111 0.39293098 0.4916613 0.21208195
-0.012280703 0.25492653 -0.2052812 0.0477773 -0.26577875 -0.16935614 -0.77827036 -0.52479416
-0.7125135 -0.3576177 -0.69353753 -0.8814998 -0.047091696 -0.43216085 -0.30874643 -0.5383047
0.21723993 -0.017107539 0.66992843 0.5460944 -0.38609985 -0.1777232 -0.1464152 0.14558181
-0.004803523 -0.28357458 -0.12944631 -0.47557706 0.6530437 -8.063222e-05 0.57931024 0.13004646
-0.1822149 0.025429877 0.081014946 0.052420404 -0.565379 -0.20695548 -0.1747129 0.029329503
-0.74262226 -1.03361 -1.0331935 -1.237994 -0.45570204 -0.67990357 -0.32787126 -0.22261809
-0.1272844 0.07207629 -0.12425233 0.014745182 0.14670289 0.6982382 -0.2234533 -0.15045668
-0.74586695 -0.5937309 -0.25786316 -0.09354981 -0.19664757 0.17782477 -0.11600142 -0.08933013
0.15854818 0.25866273 0.26114833 -0.093227 -0.26539025 0.012090845 -0.5063146 -0.13983558
0.53289515 0.58190614 0.5086208 0.81898355 -0.28051558 -0.25238633 -0.13072823 0.06624691
-0.8522047 -0.33731315 -0.16297014 -0.7645094 0.065385744 0.67489684 0.22307186 0.4177024
0.5821001 0.5159426 0.44792235 0.15250319 0.015183566 -0.2102535 -0.042099062 -0.43356535
-0.2806629 -0.57575077 0.045292895 -0.08907713 -0.41371328 0.051894594 0.015687648 0.07296666
-0.35301507 -0.4026894 -0.17147125 -0.3863524 0.30619317 0.4590232 0.9510742 0.80330247
-0.9842818 -1.2894152 0.7501445 0.8098944 -0.046997402 -0.36305037 -0.07786273 -0.066087104
0.2664477 0.2246274 -0.2536391 -0.109801844 0.46610212 0.2648482 0.29903635 0.4190073
0.6355054 -0.013204271 0.21342209 0.40791193 -0.5403452 0.38116685 -1.66101 -0.62755036
-0.28105223 -0.11472491 -0.1997788 -0.16995613 0.55607134 0.49688786 0.7444653 0.54980874
-0.24928121 -0.15848723 -0.4892425 -0.2145004 0.033085473 -0.34582913 -0.3906034 -0.9241587
0.18221146 -0.7365538 -0.5278731 -1.4376565 -0.6827453 -0.25061992 -1.1167611 0.020257512
0.37958342 0.14347485 -0.72902215 -0.28084219 -0.035454016 0.1860205 -0.40814897 0.05360119
-0.064085685 -0.4070202 -0.5114757 -0.4015385 -1.3227469 -1.2097625 -1.3813167 -1.2551037
0.029938014 -0.14060624 0.12834094 0.17907748 0.22596954 0.1964689 -0.25723332 -0.30217472
-0.28616035 -0.19004174 -0.48112085 -0.48608345 -0.26036566 -0.2956912 0.3740734 0.48851594
-0.032089524 0.2339344 0.19156125 0.10672175 -0.22691077 -0.5284538 -0.8381875 -1.3345492
0.0074433773 0.25180888 0.20900919 0.3718856 -0.40971032 0.16299132 -0.30638468 -0.62874645
0.20466244 0.33372456 0.14043218 0.37541622 -0.2794438 0.08530034 -0.16529748 0.26069725
00000000: b5d1 57be 9299 47bf 4f04 5fbf 116e d0be
00000010: 1aa4 143e 1ba5 623e 35c1 bf3e 6ca6 e53d
00000020: e495 773e 2095 cabe 315d 063d 6fc2 1cbe
00000030: 3af8 573e c153 063f 3747 653d 6b17 b33e
00000040: dd72 123f 11fe 183f 20e2 eb3e 619c 5b3f
00000050: 66cb 35be 8fb6 59bf 7ebe 0ebf 04c8 fcbe
00000060: 924b 13be 7445 53be 48b5 05bf 9036 1cbe
00000070: a445 79be 8b03 21bd 11f2 073e 5bfc e0be
00000080: 0cf5 d93e 8f90 0a3f 7ff3 a33e 5cab c03e
00000090: 097c 893d 402e c93e 08bb fb3e 032c 593e
000000a0: 0035 49bc bb85 823e 3c35 52be 21b2 433d
000000b0: 2714 88be b26b 2dbe ba3c 47bf e958 06bf
000000c0: 4967 36bf ab19 b7be ad8b 31bf f9a9 61bf
000000d0: 39e3 40bd 3044 ddbe 0314 9ebe 56ce 09bf
000000e0: 2574 5e3e 1c25 8cbc 6e80 2b3f d8cc 0b3f
000000f0: e1ae c5be 12fd 35be deed 15be 6613 153e
00000100: df66 9dbb b030 91be 938d 04be d67e f3be
00000110: df2d 273f 1819 a9b8 ad4d 143f e62a 053e
00000120: 8b96 3abe 5152 d03c 2aeb a53d c7b6 563d
00000130: aebc 10bf 23ec 53be f0e7 32be 6d44 f03c
00000140: 7e1c 3ebf 554d 84bf af3f 84bf 9676 9ebf
00000150: c751 e9be 290e 2ebf bede a7be fff5 63be
00000160: d756 02be bc9c 933d 0178 febd c795 713c
00000170: 4839 163e bdbf 323f f1d0 64be 5111 1abe
00000180: 23f1 3ebf c0fe 17bf a406 84be 0b97 bfbd
00000190: fb5d 49be b217 363e 2792 edbd b7f2 b6bd
000001a0: 745a 223e 716f 843e 3cb5 853e cced bebd
000001b0: 3be1 87be ae18 463c d59d 01bf 0f31 0fbe
000001c0: d16b 083f cdf7 143f f934 023f e8a8 513f
000001d0: bd9f 8fbe c838 81be 9fdd 05be 76ac 873d
000001e0: 162a 5abf 4fb4 acbe a5e1 26be e3b6 43bf
000001f0: f6e8 853d 0ac6 2c3f f36c 643e 17dd d53e
00000200: 8304 153f d014 043f 1456 e53e cc29 1c3e
00000210: 7ec4 783c b24c 57be 1170 2cbd 47fc ddbe
00000220: 0cb3 8fbe 6764 13bf 0b85 393d 126e b6bd
00000230: 3ad2 d3be 6d8f 543d 6283 803c 8b6f 953d
00000240: 64be b4be 4e2d cebe 2996 2fbe fbcf c5be
00000250: 5ac5 9c3e 1705 eb3e 9979 733f 3ba5 4d3f
00000260: e4f9 7bbf 8f0b a5bf 7809 403f 3d55 4f3f
00000270: 5980 40bd bde1 b9be 7f76 9fbd ad58 87bd
00000280: d56b 883e ba04 663e fcdc 81be cadf e0bd
00000290: f0a4 ee3e 2f9a 873e 4b1b 993e 2088 d63e
000002a0: 7bb0 223f ba56 58bc 528b 5a3e d5d9 d03e
000002b0: 1054 0abf 4d28 c33e fa9b d4bf 24a7 20bf
000002c0: 14e6 8fbe e5f4 eabd d092 4cbe fb08 2ebe
000002d0: b15a 0e3f 1668 fe3e 4795 3e3f 44c0 0c3f
000002e0: 9343 7fbe 7a4a 22be fe7d fabe fea5 5bbe
000002f0: a284 073d 8410 b1be 2bfd c7be aa95 6cbf
00000300: a495 3a3e ca8e 3cbf b122 07bf 2105 b8bf
00000310: 65c8 2ebf 4151 80be 07f2 8ebf 15f3 a53c
00000320: c258 c23e 12eb 123e 32a1 3abf 8cca 8fbe
00000330: 3b38 11bd 287c 3e3e e7f8 d0be ec8c 5b3d
00000340: 5b3f 83bd f464 d0be 12f0 02bf 7496 cdbe
00000350: c54f a9bf 7fd9 9abf fcce b0bf 3da7 a0bf
00000360: 9140 f53c 15fb 0fbe cf6b 033e 1660 373e
00000370: 8f64 673e 252f 493e 16b4 83be a5b6 9abe
00000380: 9c83 92be 4d9a 42be 7955 f6be eedf f8be
00000390: a64e 85be d664 97be 8c86 bf3e c31e fa3e
000003a0: 4e70 03bd 808c 6f3e a228 443e ef90 da3d
000003b0: 4c5b 68be c048 07bf 7593 56bf 82d2 aabf
000003c0: 93e7 f33b 18ed 803e 8106 563e ca67 be3e
000003d0: 8dc5 d1be 32e7 263e 74de 9cbe 87f5 20bf
000003e0: 0893 513e f2dd aa3e 74cd 0f3e 8e36 c03e
000003f0: 4213 8fbe f2b1 ae3d be43 29be 1c7a 853e

fc1.bias f4 [64]
0.18176542 0.24574639 0.034247015 0.9524905 0.50919837 0.41567165 0.51278174 1.003593
0.5205476 0.6749345 0.7358807 0.9631166 0.19775961 1.0470742 0.6142378 0.49790946
0.75837797 0.5497923 0.22140814 0.73271257 0.39846116 0.36825448 0.20866922 0.1705536
0.78234875 0.2832549 0.6960327 0.666583 1.189053 0.4026158 0.7861082 0.7393886
0.5373894 0.6331561 0.22424486 0.86031586 0.99559826 0.43957007 -0.12747636 0.30083907
0.29361728 0.73586136 0.3412203 0.522903 0.038619816 0.6101564 0.5484396 0.2551066
0.9588067 0.3177969 0.59966326 -0.079762444 0.40528625 0.90264136 0.6756381 0.98401237
0.60906076 0.78665155 0.6245457 0.19117127 0.8889747 0.5971755 0.4248573 0.6617891
00000000: b720 3a3e f1a4 7b3e 9946 0c3d 6bd6 733f
00000010: d35a 023f ead2 d43e aa45 033f bc75 803f
00000020: 9c42 053f 82c8 2c3f ad62 3c3f cf8e 763f
00000030: 7f81 4a3e 8706 863f b03e 1d3f fded fe3e
00000040: 0f25 423f 30bf 0c3f d1b8 623e 0d93 3b3f
00000050: 1a03 cc3e da8b bc3e 62ad 553e 9aa5 2e3e
00000060: 0248 483f c906 913e 332f 323f 2fa5 2a3f
00000070: e432 983f a823 ce3e 633e 493f 9248 3d3f
00000080: 5a92 093f 8516 223f 72a0 653e a93d 5c3f
00000090: 87df 7e3f 540f e13e 2a89 02be 9407 9a3e
000000a0: 0155 963e 6961 3c3f 6db4 ae3e f9dc 053f
000000b0: d02f 1e3d 3633 1c3f 8a66 0c3f 559d 823e
000000c0: 5b74 753f 46b6 a23e 8883 193f 7e5a a3bd
000000d0: ae81 cf3e 8113 673f 9ef6 2c3f 3ce8 7b3f
000000e0: 68eb 1b3f ff61 493f 3ae2 1f3f 67c2 433e
000000f0: d993 633f 7ee0 183f e586 d93e 036b 293f

fc2.weight f4 [10, 64]
-0.09891303 0.045503616 0.06386106 -0.06663789 0.020989165 -0.06863266 0.102327436 -0.04133466
0.07353397 0.0033976287 -0.0023503453 0.07926045 0.03992431 0.021086365 0.04485689 0.07201199
0.023010582 0.011172295 0.050949156 0.0912385 -0.0870914 0.091059476 0.06558578 -0.09975667
0.09086129 -0.070626676 0.09547199 -0.11554378 0.026691288 -0.08974165 0.09848386 0.06548934
0.06273499 0.004244879 0.046301857 0.048468083 -0.0045906752 0.067897975 -0.04363051 -0.051339954
0.022897333 0.064764276 0.019339949 0.02773495 0.016957536 0.078506246 0.070188224 -0.06276457
-0.10387547 0.009051949 -0.10406135 -0.11080757 -0.10809088 0.036962226 -0.011553004 -0.036865845
-0.014803752 0.03630559 -0.07671961 -0.045016244 0.016439587 0.005273059 0.098738134 -0.010183647
-0.035248145 0.008904159 0.017167926 -0.08979733 0.04286681 0.10296768 -0.049999356 0.10215323
-0.120093286 0.049978867 -0.10364835 -0.095597565 -0.00169833 0.071578965 0.049821362 -0.081693545
0.0001257807 -0.018965915 0.105723724 -0.038907304 0.09106138 0.10089728 0.09175244 0.03182113
-0.043829396 -0.038539693 -0.076319635 0.06209992 -0.12397505 0.0854933 0.05463533 -0.090485975
0.10278866 0.06470135 -0.087350816 -0.11744289 0.059915766 0.05603318 -0.034917086 -0.056137472
-0.12157248 -0.08735415 0.036010742 0.009254307 -0.033715025 -0.058277503 0.06990586 -0.03810455
-0.08298205 0.113227576 -0.055451244 -0.06166689 -0.10250449 -0.09924103 0.021919966 0.035266697
-0.1021813 -0.09658767 -0.09436959 -0.04758352 0.038793564 0.040869877 0.022574276 0.020894647
-0.0077075064 0.068399325 -0.056853935 -0.08734959 0.07542269 -0.09286387 0.0688701 0.071692675
-0.007512763 0.0695028 0.0021571666 0.068001375 0.024010241 0.11080992 -0.04777944 0.047225446
-0.055219308 0.07602759 0.09104794 -0.122262865 0.079575256 -0.06540313 -0.08227423 0.11622928
-0.08180882 -0.052707925 0.08775124 0.02272363 -0.10012321 0.095592335 0.03638059 0.041537866
-0.08416718 -0.10360636 0.092977375 -0.059224904 -0.12425192 -0.06703061 0.05256827 0.02738984
-0.0054532737 -0.039984718 0.0040405095 0.024301097 -0.025084332 -0.080115065 -0.025037274 -0.09293085
-0.042633563 0.009596258 -0.077564776 -0.029893398 0.044191673 -0.06870639 0.038308218 -0.11906727
0.03762254 -0.08776078 0.101427466 -0.04923065 0.012094647 -0.016053706 0.07370365 -0.101159856
0.095386475 0.050645486 0.053006276 0.09604284 -0.045528337 0.031456947 0.049541026 0.053049073
-0.0729651 0.07138108 -0.031032652 0.028410912 -0.094703406 -0.07660189 0.07486902 -0.05947627
-0.11183053 0.045761824 0.07709581 0.054366857 0.11852516 -0.11164513 0.042120025 0.093713626
0.031756654 0.08210786 0.052892804 -0.016327783 -0.119033456 -0.0990866 -0.123017564 0.09657857
0.08956258 0.022376314 -0.10119754 0.04218909 -0.121471435 -0.1158482 -0.007385075 0.017261237
-0.11373982 0.0076996386 0.031846642 -0.06089139 0.006070569 -0.08783932 -0.020376429 -0.10120572
0.05177939 0.048788786 0.08026093 0.01777403 0.05791594 0.1117824 0.07799739 -0.07159279
0.03348148 0.0043606907 0.049632907 0.013866901 0.015941039 0.054819703 0.10178046 0.08908108
00000000: ea92 cabd 0062 3a3d 96c9 823d 7279 88bd
00000010: 78f1 ab3c 488f 8cbd 0c91 d13d 884e 29bd
00000020: fa98 963d c0aa 5e3b 4008 1abb 4e53 a23d
00000030: ac87 233d 50bd ac3c dcbb 373d 067b 933d
00000040: b080 bc3c 000c 373c 10b0 503d 40db ba3d
00000050: fa5c b2bd 647d ba3d d651 863d 3a4d ccbd
00000060: 7c15 ba3d b8a4 90bd d286 c33d 38a2 ecbd
00000070: b0a7 da3c 78ca b7bd e8b1 c93d 461f 863d
00000080: 347b 803d a018 8b3b 04a7 3d3d 7886 463d
00000090: 606d 96bb 180e 8b3d e8b5 32bd d849 52bd
000000a0: 3093 bb3c 22a3 843d d06e 9e3c 6834 e33c
000000b0: 88ea 8a3c e2c7 a03d d8be 8f3d b68a 80bd
000000c0: aabc d4bd a04e 143c 1e1e d5bd 14ef e2bd
000000d0: c05e ddbd b465 173d d048 3dbc a400 17bd
000000e0: 708b 72bc 2cb5 143d 2c1f 9dbd f462 38bd
000000f0: 50ac 863c a0c9 ac3b 3837 ca3d 50d9 26bc
00000100: 5c60 10bd c0e2 113c c0a3 8c3c aae7 b7bd
00000110: 1c95 2f3d b8e0 d23d 20cc 4cbd b635 d13d
00000120: 78f3 f5bd a4b6 4c3d 9645 d4bd a8c8 c3bd
00000130: 809a deba fe97 923d 7c11 4c3d f24e a7bd
00000140: 00e4 0339 685e 9bbc ae85 d83d 445d 1fbd
00000150: 647e ba3d 3ca3 ce3d b4e8 bb3d e056 023d
00000160: 7486 33bd ccdb 1dbd 784d 9cbd 7c5c 7e3d
00000170: a2e6 fdbd 1c17 af3d 4cc9 5f3d b650 b9bd
00000180: dc82 d23d 2482 843d fce4 b2bd e685 f0bd
00000190: 3c6a 753d 0c83 653d 3805 0fbd 68f0 65bd
000001a0: fefa f8bd bce6 b2bd 0080 133d 609f 173c
000001b0: c418 0abd 64b4 6ebd ce2a 8f3d 8413 1cbd
000001c0: 7ef2 a9bd dce3 e73d d820 63bd 6c96 7cbd
000001d0: e0ed d1bd e23e cbbd 8091 b33c d073 103d
000001e0: 6e44 d1bd c2cf c5bd d844 c1bd f0e6 42bd
000001f0: 00e6 1e3d 2c67 273d b0ed b83c 402b ab3c
00000200: 408f fcbb f214 8c3d acdf 68bd 58e4 b2bd
00000210: 3677 9a3d 6a2f bebd c40b 8d3d 9cd3 923d
00000220: a02d f6bb 7c57 8e3d 405f 0d3b 4e44 8b3d
00000230: 20b1 c43c 50f0 e23d 60b4 43bd 786f 413d
00000240: a42d 62bd 5ab4 9b3d 5877 ba3d f464 fabd
00000250: 5af8 a23d 14f2 85bd 647f a8bd 9e09 ee3d
00000260: 628b a7bd 44e4 57bd ecb6 b33d e826 ba3c
00000270: 660d cdbd eac5 c33d d003 153d 9c23 2a3d
00000280: d85f acbd 922f d4bd ec6a be3d d095 72bd
00000290: ca77 febd 5847 89bd d451 573d a860 e03c
000002a0: 60b1 b2bb 04c7 23bd 4066 843b 1813 c73c
000002b0: a87d cdbc 5e13 a4bd f81a cdbc 8852 bebd
000002c0: 88a0 2ebd a039 1d3c 48da 9ebd 00e3 f4bc
000002d0: 5402 353d f0b5 8cbd 14e9 1c3d 8ad9 f3bd
000002e0: 181a 1a3d ecbb b3bd 34b9 cf3d 14a6 49bd
000002f0: a028 463c 1083 83bc f0f1 963d e62c cfbd
00000300: fc59 c33d a471 4f3d 1c1d 593d 1cb2 c43d
00000310: ec7b 3abd 00d9 003d 88eb 4a3d fc49 593d
00000320: ba6e 95bd 3e30 923d 3038 febc 00be e83c
00000330: dcf3 c1bd 74e1 9cbd ee54 993d 649d 73bd
00000340: 6807 e5bd c070 3b3d 68e4 9d3d c8af 5e3d
00000350: 52bd f23d 34a6 e4bd 0c86 2c3d eeec bf3d
00000360: 4413 023d 2a28 a83d 20a6 583d d8c1 85bc
00000370: d0c7 f3bd eaed cabd a2f0 fbbd fcca c53d
00000380: 966c b73d 884e b73c a840 cfbd 78ce 2c3d
00000390: 04c6 f8bd d241 edbd 80fe f1bb 7067 8d3c
000003a0: 6cf0 e8bd 404d fc3b a071 023d 4069 79bd
000003b0: a0eb c63b 1ae5 b3bd 78ec a6bc f244 cfbd
000003c0: a016 543d c0d6 473d d85f a43d d89a 913c
000003d0: 4439 6d3d 2cee e43d 18bd 9f3d 3e9f 92bd
000003e0: e023 093d 20e4 8e3b e04b 4b3d 0032 633c
000003f0: c896 823c a08a 603d 4672 d03d 2470 b63d

fc2.bias f4 [10]
0.082903296 0.029414147 0.06819551 -0.060551256 0.10679279 -0.058340847 -0.05986619 0.055111304
-0.026040122 -0.118245095
00000000: 34c9 a93d f0f5 f03c 16aa 8b3d 9804 78bd
00000010: 2eb6 da3d d0f6 6ebd 4036 75bd 64bc 613d
00000020: 1852 d5bc 7c2a f2bd
