cifar10/models/tiny_cifar10.model (torch_old, 236259 bytes, 22 tensors)

conv1.weight f4 [16, 3, 3, 3]
000000 41 2f 14 3e c6 46 4b 3d 41 60 17 be a5 be 8c be
       0.14471151 0.04962804 -0.14782812 -0.274892
000010 88 d4 4b 3e 67 ca 50 3e d4 d9 33 3c a9 55 79 be
       0.19905293 0.2038971 0.010977227 -0.24349083
000020 3c d0 49 3c b7 f9 34 bd 8a 1a 4a 3e c5 df af be
       0.012317713 -0.04418346 0.19736686 -0.3435041
000030 57 8a 81 bd 4f e8 99 3e ad fb 44 3e 04 bf a2 3d
       -0.06325214 0.3006005 0.19236632 0.079465896
000040 ed ef 81 be 48 a9 6d bc 14 ac 3e 3d 48 a0 92 3c
       -0.2537836 -0.014505692 0.046550825 0.017898694
000050 d9 c0 e4 bd 64 1d 44 be 6d b6 91 3d bc 52 d2 3d
       -0.11169595 -0.19151837 0.07114873 0.102696866
000060 36 d5 d3 3d f3 cc 38 be c6 8f d4 3d 1f 6f 13 be
       0.10343401 -0.18046932 0.10378985 -0.14397858
000070 25 53 d2 bd 3c 5e 0a 3e 64 bc 77 bd 91 25 0f 3e
       -0.10269765 0.1351251 -0.060482398 0.13979174
000080 a0 1a c9 bb 4c eb 25 3e 26 c8 25 be fa fa 0f 3c
       -0.006137207 0.1620304 -0.16189632 0.008787865
000090 03 8f e3 3c c9 2f d9 bd 4f c3 48 3e 0d 00 a5 be
       0.027778154 -0.106048174 0.19605754 -0.322266
0000a0 94 95 d7 3d 07 7a 80 3e b1 cf e8 bd bd a1 93 bd
       0.10526577 0.250931 -0.11367739 -0.072085835
0000b0 e0 3d a3 3d 05 f7 80 be 14 38 df bc 72 c5 92 3e
       0.07970786 -0.2518846 -0.02724842 0.28666264
0000c0 b4 bf 9b be 48 66 df bd b8 a4 8e 3e 5b 1f e2 bd
       -0.30419695 -0.109081805 0.27860045 -0.11041137
0000d0 94 e9 0a be 99 18 ae 3e b5 87 d8 bd c0 61 5f bd
       -0.13565665 0.34003142 -0.10572759 -0.05453658
0000e0 e7 4d 89 bd 7c d7 44 be 07 86 db bd 46 e6 39 3d
       -0.06704312 -0.19222826 -0.10718923 0.04538562
0000f0 2b b5 49 bd 28 09 97 3c 2e 46 8b bd 9b 30 b4 3e
       -0.04924504 0.018436983 -0.06800495 0.35193333
000100 72 04 64 3d 5e 81 81 3e 4a 5c 3d 3e c5 31 95 3e
       0.055668302 0.25294012 0.18492237 0.29139534
000110 99 22 08 3e 21 5c 49 3e 1d 71 54 3e 2b b6 29 bd
       0.13294448 0.1966405 0.20746274 -0.041433495
000120 74 92 4a be c0 c5 35 be 5d 32 15 be 4a 67 a7 be
       -0.1978243 -0.17751217 -0.14569993 -0.3269599
000130 ee 8f 71 bd 93 b2 fd bd f4 1d eb bd 38 c8 3c be
       -0.058975153 -0.12387576 -0.114803225 -0.18435752
000140 14 58 0d 3d 51 3a 0e be 88 97 4f 3e 97 8f 41 be
       0.034507826 -0.13889433 0.20272648 -0.18902431
000150 da b6 32 bd ad 88 9a 3e 27 09 63 be 20 36 5b 3c
       -0.043631412 0.301824 -0.2217146 0.013379604
000160 b7 74 bb 3d 40 f3 c3 bc d1 97 29 bd 0b 03 a4 3e
       0.09153121 -0.023919702 -0.04140455 0.32033572
000170 e5 08 07 be df 0c 6c be 52 8f 45 3e f8 e5 b7 bd
       -0.13186987 -0.23051785 0.19292954 -0.0897941
000180 9a 7e bb bd 07 e1 33 3d 36 e0 e4 bb 54 a4 f6 bd
       -0.09155007 0.043915775 -0.006984736 -0.12043062
000190 a1 92 eb 3d b6 6b a5 bb 89 24 d9 bd bd 58 56 3e
       0.115025766 -0.0050482405 -0.10602672 0.20932288
0001a0 83 bb 9e bd d3 6b b5 bd 4d 1a 5b 3e f8 76 0f be
       -0.07750609 -0.088584565 0.21396752 -0.14010227
0001b0 f0 11 31 3e 1e a5 b4 bd d5 34 1c bc fd a5 16 3e
       0.17291999 -0.08820556 -0.0095340805 0.14711757
0001c0 32 e2 aa bd da 97 11 bf 5a 1e 0e 3e 1e 3a 65 be
       -0.083439246 -0.5687233 0.13878766 -0.22385451
0001d0 e8 35 12 bf 75 49 e0 bd 78 91 43 3d 19 d7 0e be
       -0.57113504 -0.10951511 0.04774615 -0.1394924
0001e0 2f d7 01 bd 74 d4 73 bc f7 58 61 be f0 e4 1e 3e
       -0.031699356 -0.014882196 -0.22006594 0.1551702
0001f0 7c 9d 47 be 71 6a 8d be 88 0e 8c be 7f a3 04 3c
       -0.1949367 -0.2762027 -0.27354836 0.008095621
000200 5b 81 4d 3e 28 5f d5 3d 9c 23 c5 3d e7 36 e2 3b
       0.20068876 0.1041854 0.096259326 0.0069035175
000210 52 32 a2 bc 32 af 88 3d 2c 52 99 bc ed b1 4d be
       -0.019799385 0.06674041 -0.01871594 -0.20087405
000220 fe 20 85 3e 9c 10 12 3d 59 d7 53 3e 79 90 0a 3e
       0.26001734 0.03566037 0.20687617 0.13531674
000230 b2 60 91 be c2 35 ab 3d 04 e9 8d be 11 29 36 3e
       -0.28394085 0.08359863 -0.2771684 0.17789103
000240 6d ee be bd 15 13 52 3a 89 20 d6 3d a2 dc 1b 3d
       -0.0932282 0.00080137077 0.10455424 0.03805221
000250 0a bb 03 bc fb 58 6e be 5a f7 b4 bd 3f 4c 6f bd
       -0.008040199 -0.23276131 -0.08836241 -0.058422323
000260 be fc 0b 3e a9 13 87 be 1c 35 8e 3e 29 23 2d ba
       0.13670632 -0.26382187 0.27774894 -0.00066046655
000270 03 0f 49 3e af f6 2c 3e 95 e3 41 be b2 aa 45 3e
       0.19634633 0.16890977 -0.18934472 0.19303396
000280 c5 c4 93 be 60 54 f1 3d ee 45 ff 3d bc 06 32 bc
       -0.2886106 0.117836714 0.1246451 -0.010865863
000290 34 08 87 bc 3d fd da 3c 16 f9 04 be a5 20 ea 3d
       -0.016483404 0.026732082 -0.12985644 0.11432008
0002a0 f7 6f 97 bd d2 83 a6 bc e5 3f 85 3b 3b 44 76 bd
       -0.073944025 -0.020326529 0.0040664547 -0.060123663
0002b0 ed 9c 79 be e8 aa f3 3d cc ca 5e be e3 d3 ef bd
       -0.24376269 0.11897832 -0.21757048 -0.11710336
0002c0 85 a8 c1 3d de b3 7d bc e0 ae a0 3e b4 09 29 3e
       0.09455971 -0.015484778 0.3138342 0.16507608
0002d0 3f 06 a2 bd d2 fc 8a be 0b b5 32 be 8b b7 b5 be
       -0.079113476 -0.27146012 -0.17451875 -0.35491595
0002e0 a0 bc e5 3b 95 0d a3 3e 61 c7 0f 3e 7b dc 21 3e
       0.0070110112 0.318463 0.14040901 0.15806763
0002f0 18 1d 35 3e 88 44 4e 3e ce d1 0a 3e b8 e8 08 3e
       0.1768688 0.2014333 0.13556597 0.13370025
000300 79 3f aa bc 86 13 0d be 91 60 47 3e a6 bf 27 be
       -0.02078222 -0.13776979 0.19470431 -0.16381702
000310 75 30 31 bd 4f 9f 52 be 42 fb b0 3e 9d d1 85 3e
       -0.043259103 -0.20568584 0.34566694 0.26136485
000320 af 05 5b 3c 40 ce c1 3d ca 94 f0 bd ba 70 48 be
       0.013368054 0.09463167 -0.11747129 -0.19574252
000330 90 96 ca bd a3 02 24 be 04 8e a1 be fe 7a df 3d
       -0.09891999 -0.16016631 -0.31553662 0.10912131
000340 22 75 4a 3e 56 63 0a 3e a5 70 71 bd e0 6f f0 3d
       0.19771245 0.13514456 -0.058945317 0.117400885
000350 df 86 ae bd 40 15 3a be 17 75 9c bd 18 7f fe bd
       -0.08521818 -0.18172169 -0.076395206 -0.12426585
000360 7f 37 7d be d2 99 d0 be 24 7c 9f be 35 ea 01 3e
       -0.24728201 -0.40742356 -0.311494 0.12686999
000370 cb aa c2 3d cb 2b 11 bc fa 7c 2c 3e bd d5 9e 3e
       0.095052324 -0.008860539 0.1684455 0.31022444
000380 89 95 8c 3e a6 de 8f 3d 60 74 d2 3d 8c c5 35 3c
       0.27457836 0.07024889 0.10276103 0.011094462
000390 26 59 ed bc 56 ae 8d 3d aa 18 6b 3d a5 f7 d2 bd
       -0.028973173 0.069180176 0.05739657 -0.10301141
0003a0 da 42 03 be 26 35 4b bd 1e 2a e6 3d 41 8d 30 3e
       -0.1281847 -0.049611233 0.11238502 0.17241384
0003b0 a0 96 53 3e 65 7d c5 bc 55 18 8f bd ba 24 de 3c
       0.20662928 -0.024107644 -0.06987063 0.027117122
0003c0 1a 3c e5 bc 86 19 52 be fb 95 58 be 9c 3f 80 3c
       -0.02798276 -0.20517549 -0.21150963 0.015655331
0003d0 4b 84 c2 bd 7e 97 0a 3e 3d 1e 7e 3e de b1 6b bd
       -0.09497889 0.13534352 0.24816222 -0.057542674
0003e0 3f d3 70 be 27 63 38 be e1 58 8d 3e b3 7d 0c 3d
       -0.23518084 -0.18006574 0.27606872 0.034299564
0003f0 3f 37 c7 bc 7e 9e 2d be bc f7 fe bc bb a9 04 3e
       -0.024318336 -0.16954991 -0.031123988 0.12955372

conv1.bias f4 [16]
000000 2f 61 e8 3e 0e 4a 83 bd 44 9d 9b bd 3c 47 27 be
       0.45386645 -0.06410609 -0.075983554 -0.16335768
000010 e1 c5 0c be 44 c1 81 be 18 ee 4b be f6 e2 b6 be
       -0.1374736 -0.25342762 -0.19915044 -0.35720032
000020 f2 3e 1b bb 65 8d 87 3c 4b ac 3f be 38 26 0a 3e
       -0.0023688641 0.016546914 -0.18718068 0.13491142
000030 39 95 86 be 0a 8e 5a be 42 f7 ef 3d 7c e4 27 be
       -0.26285723 -0.21343246 0.117170826 -0.16395754

conv1_bn.weight f4 [16]
000000 2a b3 f8 3e 12 8f 18 3f bc 3a 1f 3f f6 36 73 3f
       0.4857419 0.5959331 0.62198997 0.9500574
000010 2b 9b 5a 3f 91 5b d2 3e 94 1c 11 3f 6b d5 28 3f
       0.8539302 0.41085485 0.5668423 0.6595065
000020 ce ec 0b 3f 79 77 28 3f 55 17 ea 3e 90 dc 38 3f
       0.5465821 0.658073 0.45720926 0.7221155
000030 05 4f 19 3f 49 cb 34 3f 00 d5 18 3f f8 6d 11 3f
       0.598862 0.7062269 0.5970001 0.56808424

conv1_bn.bias f4 [16]
000000 2c a3 03 3b c8 4a 1e bc 44 18 31 3e 0a 94 4d 3c
       0.0020086272 -0.009661384 0.17294413 0.012547502
000010 40 90 b4 be 43 37 d5 3d 2a 8b 54 3d c5 f1 be bb
       -0.35266304 0.10410931 0.05189053 -0.005827161
000020 5f 2e 69 bd 74 1b b2 bd 5e 52 36 3e 59 7c bb bd
       -0.05692899 -0.086966425 0.17804858 -0.09154577
000030 fd fd 35 3e a5 49 ba 3c 3b 0f 62 bc cd 95 65 3d
       0.1777267 0.022740195 -0.013797577 0.056051064

conv1_bn.running_mean f4 [16]
000000 6b 39 ee 3e 50 db 8c bd 68 86 81 bd fd 71 14 be
       0.4652818 -0.06877768 -0.06324464 -0.14496608
000010 41 1c 5c 3e 58 d7 8d be d5 2a 57 be 44 d9 a9 be
       0.21495153 -0.27703357 -0.21012433 -0.33173573
000020 b2 41 e2 3b be b2 fa bc f5 22 1d be bd 82 61 3e
       0.006904804 -0.030602809 -0.15345366 0.22022529
000030 3e ff 99 be 9e 2b 48 be e2 8d 0e 3e 55 c3 1e be
       -0.30077547 -0.19547889 0.13921311 -0.15504201

conv1_bn.running_var f4 [16]
000000 30 85 c9 3d c7 93 51 3f fb 23 74 3e ae 55 88 3e
       0.098398566 0.81866115 0.2384185 0.26627868
000010 5b 6d 57 40 4d c5 ae 3d 94 b2 05 3f e9 25 99 3f
       3.3660495 0.08533726 0.52225614 1.1964694
000020 e6 28 9c 3d 12 e7 e8 3e e2 de e9 3d 7a 8c bc 3e
       0.07624988 0.45488793 0.11419465 0.36825925
000030 48 5d 55 3f 95 53 88 3e 04 95 d4 3e 07 ba 85 3f
       0.8334546 0.26626268 0.4151994 1.0447396

conv2.weight f4 [32, 16, 3, 3]
000000 07 da 3c bd 6d 2a ee bd 29 03 b0 bd 65 6e f9 bd
       -0.046106365 -0.11629186 -0.08594353 -0.12179259
000010 03 50 fc be 5d 54 81 be 8d 24 ab 3d 06 40 d5 bd
       -0.49279794 -0.25259677 0.08356581 -0.10412602
000020 d0 2c 90 bd 28 26 78 bd 0f eb 93 bd af 82 02 be
       -0.07039797 -0.060583264 -0.07222568 -0.12745164
000030 e4 78 dd 3d 24 e8 c5 bb ce 29 e7 3d 5f a2 6a bd
       0.10814074 -0.006039636 0.112872705 -0.057283755
000040 0e b8 fe bc d5 5a a4 bd be 31 b0 3e db b2 0c bd
       -0.031093623 -0.08025137 0.3441295 -0.034350257
000050 b4 20 32 bd a3 54 25 be 83 36 63 bf 90 8c 02 bf
       -0.04348822 -0.16145568 -0.88755053 -0.5099573
000060 a0 2c 23 3d bd 15 cb be 0f 03 68 be 7b 0d 65 bc
       0.03983748 -0.39665022 -0.22657417 -0.013980265
000070 5c 75 cc 3c 65 09 84 bc 24 10 43 bd df 71 98 3d
       0.024958305 -0.01611776 -0.047622815 0.07443594
000080 34 76 d9 3d 55 34 52 bd ab 16 49 bd d5 08 b7 3d
       0.106182486 -0.05131944 -0.049093883 0.089372315
000090 77 40 36 be c2 40 07 be 54 21 87 bc 80 a5 00 be
       -0.17798029 -0.13208297 -0.016495384 -0.12563133
0000a0 bb f9 21 be 27 2f 8a 3d 33 72 07 3d 10 bc d4 3d
       -0.15817921 0.06747275 0.033067893 0.103874326
0000b0 ed 57 03 3e 19 6b f2 bc 6d 82 89 3d 7e aa db b9
       0.1282651 -0.029592084 0.0671433 -0.00041897962
0000c0 a2 5a f4 3c db a9 6c 3e d0 b7 7e 3e 8a d5 1f bb
       0.029828373 0.2311167 0.24874806 -0.0024388754
0000d0 88 f5 f7 3d 1b 53 28 bd e4 1d 03 3d 71 19 4c 3c
       0.12107378 -0.04109488 0.032010928 0.012457238
0000e0 31 91 eb 3d d9 0c 6c bd 96 79 2a be 39 ad 28 3c
       0.115023024 -0.05762944 -0.16647944 0.010295206
0000f0 ce 8a ea 3d 92 da 57 3d ec 48 f3 3c 20 13 f6 3d
       0.11452256 0.05269868 0.029697858 0.120153666
000100 3a 32 39 3b 7a b7 4f 3d cf de ad bc cf 23 6e be
       0.0028258697 0.050712086 -0.021224407 -0.23255847
000110 8d 61 1b be 30 f7 e9 3c c6 b7 00 3d e2 06 ab bd
       -0.15173931 0.028560251 0.03142526 -0.08350922
000120 ec ed 37 bd d8 a8 cc 3d b2 b5 e9 3c e7 a5 d2 bd
       -0.044904634 0.09993142 0.028529022 -0.102855496
000130 af 91 80 3d fe 76 00 bd ec 5a 53 bc 57 83 bd 3b
       0.06277787 -0.03136348 -0.012900095 0.005783479
000140 57 78 d3 3c 97 20 cb bd f9 ec 91 3b a0 4f 4f 3d
       0.025814218 -0.099183254 0.004453298 0.050613046
000150 3b df 45 3d 93 88 81 3c f3 0b 57 3d 5f 7e ae 3d
       0.048308592 0.015812194 0.05250163 0.08520197
000160 f1 5b 84 3d 8c b8 d9 bb af 90 dd 3b b7 d0 61 3c
       0.06462849 -0.006644314 0.0067616324 0.013782672
000170 ed f9 ef bc 43 a8 bf 3b bc 17 d2 3c 41 e8 a7 3c
       -0.029293979 0.005848916 0.025646083 0.02049649
000180 e3 9d f0 bc c8 d8 ca 3c 45 4e 5e bc 40 7e fb bd
       -0.029372161 0.024761572 -0.013568466 -0.1227994
000190 74 38 8c 3d d5 f5 f4 bc 70 a5 45 bd bf 77 a0 3e
       0.06846705 -0.029902378 -0.048253477 0.3134136
0001a0 04 e1 23 3e 86 9c 24 3e 8b dd 99 3e 60 de bb 3d
       0.16003805 0.16075334 0.30051836 0.09173274
0001b0 6f 98 07 3e f9 f5 0e 3c 5e e3 5f 3d 12 83 02 be
       0.13241743 0.008725637 0.054660194 -0.12745312
0001c0 38 a0 c0 bd ee 32 09 be 5e 5e 55 bd 39 51 34 bd
       -0.09405559 -0.13398334 -0.05209195 -0.044022772
0001d0 ed 25 e4 bd a3 b4 e0 3d 5f 5f 35 3d 76 10 28 bd
       -0.11140046 0.10971954 0.044280406 -0.041031323
0001e0 85 a8 29 3d 3d f5 83 be fe 57 1b 3d 75 66 89 bc
       0.04142048 -0.2577304 0.037925713 -0.016772488
0001f0 fb 09 20 bd 15 33 e3 bd d2 6a 45 be 93 10 e6 3b
       -0.039072018 -0.110937275 -0.1927903 0.007021019
000200 3f 1b fb bc de de f1 bc b2 76 0e 3e ac 9b 42 3e
       -0.03065264 -0.029525217 0.13912466 0.19004697
000210 41 67 cc 3d 2e f4 e5 3d bf 7d cd 3d 26 00 79 bd
       0.099806316 0.11228214 0.1003375 -0.060791157
000220 94 07 3a be bf 60 1b be 45 46 12 bd c1 62 26 be
       -0.18166953 -0.15173624 -0.035711545 -0.16248609
000230 ed 92 b4 3c 52 e2 c0 bd 16 8e bf bd 3f b8 54 bc
       0.022042716 -0.09418167 -0.093532726 -0.012983381
000240 85 ab 58 bd 65 e3 05 bd a5 85 90 3d 0d 91 77 bd
       -0.05289795 -0.032687563 0.07056741 -0.060441066
000250 49 a0 1b be 5f 7c 44 3d 32 1b 93 bd 14 6f 66 be
       -0.15197863 0.047970172 -0.071829215 -0.2250331
000260 0c 55 8e bd 33 c1 75 be b2 ae a9 be 2c ac f2 bd
       -0.06949815 -0.23999481 -0.33141094 -0.118492454
000270 d3 44 70 be 46 97 5b bf bc fb 21 be 76 53 8d be
       -0.23463754 -0.857777 -0.15818685 -0.27602738
000280 b7 9a 8f bf 9b 36 8f be ec 06 61 3d 33 92 9b 3b
       -1.121909 -0.27971348 0.05493824 0.004747653
000290 04 ab ad bd 24 ad bb 3d 06 01 70 3d 8d d1 0d 3c
       -0.08479884 0.09163883 0.058594726 0.008655918
0002a0 57 46 a3 bc 62 af 7a bb 91 ce 34 bd fe b0 bb 3d
       -0.019931002 -0.003825151 -0.04414231 0.09164618
0002b0 41 55 26 3e 63 fc fa 3d bf 02 47 3d 95 80 33 be
       0.1624346 0.1225517 0.048586603 -0.17529519
0002c0 6a 75 c2 3d 97 91 27 3c 9a 70 ee be 40 b6 82 3d
       0.09495051 0.010227582 -0.46570283 0.06382418
0002d0 60 a2 98 3d e8 d0 c7 3d 0d d2 78 3e 01 94 31 be
       0.074528456 0.097566426 0.24298878 -0.17341615
0002e0 25 48 72 be 8f 1d 94 3c 6f 77 c9 bd 72 da 2f be
       -0.23660333 0.0180805 -0.09837233 -0.17173174
0002f0 23 c8 09 3e 78 40 6c be 38 3b 0b be ed 40 35 bd
       0.13455252 -0.23071468 -0.13596809 -0.04425137
000300 52 03 1c be f4 3e 8a be d7 71 f7 3b 70 ca 05 be
       -0.15235642 -0.27001154 0.0075514126 -0.13065505
000310 18 d0 93 be 14 fc 2e bd ac 15 41 bd d8 a9 10 bd
       -0.288697 -0.04272087 -0.04713981 -0.035318226
000320 8a f6 fc bc f2 d7 e8 3d b3 e5 94 bd 04 8a 98 3d
       -0.030879278 0.11369313 -0.07270374 0.074481994
000330 26 28 3e 3d 06 27 b3 bd bb 86 22 3e 2c 47 ab bc
       0.046425007 -0.087476775 0.15871708 -0.02090796
000340 fd 9d 1a bd 43 c6 94 3d 98 d9 5a 3d 4d a9 dd bc
       -0.037748326 0.07264378 0.05343017 -0.027058268
000350 6c 22 6d 3d a8 b5 8b 3d 13 72 31 bc ba e7 08 3d
       0.057894155 0.068217576 -0.01083042 0.033424117
000360 b0 c6 26 3c 06 53 98 3c d9 83 f3 3c e0 7f 16 3d
       0.010179207 0.018594276 0.029725956 0.036743045
000370 1e 9f 42 bc c7 2c d4 ba 86 64 08 3d cf 4f 4d 3c
       -0.011878757 -0.0016187661 0.03329899 0.012531235
000380 8f 30 5e 3d cc d8 7f 3d 58 d6 1a 3c e8 40 4f bd
       0.054245528 0.062462613 0.009450518 -0.05059901
000390 76 29 8b bd 62 63 dc bd 27 c8 2b bd f6 69 58 3d
       -0.067950174 -0.10761143 -0.041938927 0.052835427
0003a0 5c 25 bb bd f9 84 8b bb 9c 47 9e bd 4a 9f 03 3d
       -0.09137985 -0.004257795 -0.07728502 0.03213433
0003b0 8f 12 d4 bc 7d 41 34 be 4e 63 8f be aa 7d 34 bd
       -0.025887756 -0.17603107 -0.2800545 -0.044065155
0003c0 d2 39 e6 bd c6 7b 9c be 42 7f 71 bd 4b 76 cd 3d
       -0.11241497 -0.30563182 -0.058959253 0.10032328
0003d0 ad 86 31 bd 08 3a a6 3c ac 53 8b 3d db 6f 61 bd
       -0.043341327 0.020291343 0.068030685 -0.055038314
0003e0 26 33 a6 bd b6 b5 9c 3d ab f0 bd bd 7d 88 81 bd
       -0.081152245 0.07651846 -0.092744194 -0.06324861
0003f0 f0 e7 64 bc 61 d4 db 3b 90 16 14 3d ee b4 3d bc
       -0.013971314 0.006708667 0.03615433 -0.0115787815

conv2.bias f4 [32]
000000 cb eb f2 3b 35 6a 1d bd 48 31 d0 bd 84 19 1d be
       0.0074133626 -0.038431365 -0.1016565 -0.15341765
000010 76 97 0e bd 61 ec d8 3d 1f 28 d7 3d 1c 5a 6b 3d
       -0.034812413 0.10591961 0.10505699 0.057458982
000020 7e 87 cb 3d a1 72 01 bd f5 c4 00 3d db 3d 84 3d
       0.099379525 -0.03160346 0.031437833 0.064571105
000030 1a 40 07 3b 4f f4 4c be b3 33 85 3d 75 fe e4 3b
       0.0020637573 -0.20015071 0.065040015 0.0069883415
000040 b3 2f b8 bb 1e 54 60 3d 20 72 2f bd ff a4 9a bc
       -0.0056209206 0.05476772 -0.042833447 -0.018877504
000050 67 bd e7 3c 1a 81 81 3d eb 9f a2 bc 53 1c 43 3d
       0.028288556 0.06323452 -0.019851645 0.047634434
000060 96 61 bb bd 01 23 6c bd 8b bc 0e be ca b8 0f 3c
       -0.091494724 -0.05765057 -0.13939111 0.0087720845
000070 a4 d9 67 3d ea cb de bd 7f 07 fe 3d 98 60 33 3d
       0.056604043 -0.10878737 0.124037735 0.04379329

conv2_bn.weight f4 [32]
000000 f4 8c 08 3f 10 40 8f 3f 55 0f ea 3e e4 ce cf 3e
       0.5334008 1.1191425 0.45714822 0.40587533
000010 9b 94 1f 3f 97 cf 3d 3f 6d 92 d2 3e 50 3b 0a 3f
       0.6233613 0.7414488 0.4112734 0.53996754
000020 34 7c 08 3f fe e8 93 3e 3c 6e d0 3e d0 cb 1e 3f
       0.5331452 0.28888696 0.40709102 0.62029743
000030 eb 28 be 3e a2 e6 a1 3e e9 4d 8f 3e f6 34 3a 3f
       0.37140593 0.3162127 0.27989128 0.7273706
000040 99 d3 21 3f 12 44 da 3e ac 95 2a 3f 6d 32 17 3f
       0.632135 0.4263006 0.6663463 0.5906132
000050 04 a8 b7 3e 23 68 15 3f be be 9e 3e 26 54 02 3f
       0.35870373 0.58362025 0.310049 0.5090965
000060 eb 57 16 3f f7 c5 ea 3e aa 3b d9 3e 19 94 5d 3f
       0.587279 0.4585416 0.42428333 0.86554104
000070 ef 23 df 3e cc 5b 11 3f 9c 6f 3c 3f be 39 36 3f
       0.43582103 0.56780696 0.736078 0.7118186

conv2_bn.bias f4 [32]
000000 e0 cd a2 be 45 8e f0 be 39 ab 37 be 09 54 23 bd
       -0.31797695 -0.46983543 -0.1793641 -0.039875064
000010 4a dd a8 be 6b 91 ca be 56 82 9c bd a4 e1 dd bd
       -0.3298133 -0.3956407 -0.07642047 -0.10834053
000020 b1 0b 98 be 8d 96 63 3e 0f fe 10 be fc d1 94 be
       -0.2969642 0.222254 -0.14159416 -0.29066455
000030 81 af 8a bc 5f 37 61 3e 7a b6 86 bc 8c 9d b0 be
       -0.01692939 0.21993779 -0.016444433 -0.344952
000040 e8 8d d5 bd 43 2b 66 bd 98 a7 98 be 12 5a 7d be
       -0.10427457 -0.0561936 -0.29815364 -0.2474139
000050 17 d8 ce bc 1e 29 5a be 1b af 21 3e ea 1f 8c be
       -0.025249524 -0.21304747 0.15789454 -0.27368098
000060 dc 6e 25 be 1a 44 10 be c4 4c b1 bd 0a 43 a6 be
       -0.16155571 -0.14088479 -0.0865722 -0.32473022
000070 e0 d5 2f 3c 64 0c 78 bd bc ec 03 be 66 87 f0 be
       0.010732144 -0.06055869 -0.12883276 -0.469783

conv2_bn.running_mean f4 [32]
000000 fa b3 76 bf bf 52 1f c0 03 c7 87 bf 6f 56 3e bf
       -0.9636837 -2.4894254 -1.0607609 -0.7435064
000010 e8 1f 8f bf 38 3c b2 bf dc 00 81 be cd 19 23 bf
       -1.1181612 -1.3924627 -0.25195968 -0.63711244
000020 4e 50 32 bf dc 16 88 3f 83 d2 16 bf cf 25 9e bf
       -0.69653785 1.0631976 -0.58914965 -1.2355288
000030 a2 b9 b0 3e e1 e0 87 be 91 00 41 bf 9e 13 4d bf
       0.34516627 -0.26538756 -0.7539149 -0.8010806
000040 8c df d8 be 7c 61 5d bf 4a 53 d2 bf 86 d5 a7 bf
       -0.42358053 -0.86476874 -1.6431668 -1.3112037
000050 69 a7 0b 3f 1c 2c 73 bf 6f 40 83 bf 11 95 0e bf
       0.5455232 -0.9498918 -1.0254039 -0.5569621
000060 2e 5c 54 bf 35 4f 9c be a0 0b 8f 3e ab ed df bf
       -0.82953155 -0.3052918 0.27938557 -1.7494406
000070 97 9c 12 bf 31 b8 45 bf 31 8f 5d bf 50 36 de be
       -0.5727019 -0.7723418 -0.8654662 -0.43400812

conv2_bn.running_var f4 [32]
000000 d0 c8 c2 3f 2b 8e 52 40 52 c4 90 3f 85 8d 54 3f
       1.5217533 3.2899272 1.1309912 0.8302844
000010 72 c4 dc 3f c7 99 e3 3f 6c e2 13 3f 24 c0 d2 3f
       1.724745 1.7781304 0.5776737 1.6464887
000020 4f 4c 88 3f cc f4 76 3f b4 35 40 3f 61 6e 19 40
       1.0648288 0.9646728 0.75081944 2.397362
000030 24 28 6e 3f 38 75 1b 3f 1b 06 3f 3f 8a e4 12 40
       0.9303 0.60725737 0.7461869 2.295199
000040 f4 ca 80 3f c1 db 95 3f cf a6 11 40 48 42 9c 3f
       1.0061936 1.1707689 2.2758062 1.2207727
000050 58 09 9b 3f cc 13 0b 40 b0 75 4e 3f 5f 94 94 3f
       1.2112226 2.1730833 0.80648327 1.1607779
000060 63 42 69 3f f8 89 17 3f 74 8e ad 3f 1a d4 b5 3f
       0.91116923 0.591949 1.3559098 1.4205353
000070 ed ba 29 3f c7 a8 40 3f 64 fe 9c 3f 57 eb 26 3f
       0.6630085 0.75257534 1.2265134 0.6520285

conv3.weight f4 [64, 32, 3, 3]
000000 61 fa 47 bd 2a 0d 7c bd 5f 87 23 be a1 aa 1a 3e
       -0.048822764 -0.06153599 -0.15969609 0.15104152
000010 0d 24 f4 3c b9 cb d2 3b 92 fb 63 bd 8c 5e 8e bd
       0.029802347 0.006432977 -0.055659838 -0.06951627
000020 4e 88 5e bd 44 cf 72 3e c4 1f 79 be 47 fd 91 be
       -0.05432921 0.23711878 -0.24328524 -0.28513548
000030 8c d7 52 3d 4f 41 f9 bb e1 14 43 be 22 07 05 3e
       0.051475093 -0.0076066623 -0.19050933 0.12991002
000040 f5 e4 66 3e f7 4f ac be 18 57 68 bd 24 03 f8 3d
       0.22548278 -0.33654758 -0.056723684 0.12109974
000050 e7 fb 86 3d ef f4 ef 3c 91 f3 8e 3d 02 70 0d be
       0.06591015 0.029291598 0.0698005 -0.13812259
000060 55 de d0 3d 95 84 8d bd d7 1c d1 3d 92 85 c9 3c
       0.101986565 -0.06910054 0.10210579 0.024599824
000070 6c d7 f1 bd 6f a4 84 be 52 10 81 3e 3f f4 ab 3c
       -0.118086666 -0.25906703 0.25207764 0.020990489
000080 41 88 dc 3d 2c da 37 3e 1e 5c 44 be e7 fc 63 bc
       0.10768176 0.1795432 -0.19175765 -0.013915277
000090 b5 ec f3 bd 76 c2 71 bd 68 9b 38 3e 0e 74 6e 3e
       -0.11910383 -0.059023343 0.18028033 0.23286459
0000a0 47 16 9e bd 38 69 f1 bd 6f 3c 88 3e 0b 74 83 bd
       -0.07719093 -0.11787647 0.26608607 -0.06418618
0000b0 28 80 aa be b7 d7 46 be e0 40 83 bc 9a 6f b3 3c
       -0.333009 -0.19418226 -0.016022146 0.021903802
0000c0 73 15 71 bd f8 d8 c6 bc e8 fa 03 bd a8 25 84 bd
       -0.058858346 -0.02427338 -0.032221705 -0.06452495
0000d0 8d d8 35 be a7 b3 ab be e5 42 be bc 37 8a b4 bc
       -0.17758389 -0.335355 -0.023225257 -0.022038562
0000e0 0a 84 a0 3d 34 c4 6c 3e 36 35 08 be c8 47 11 bd
       0.078376845 0.2312172 -0.13301548 -0.035468847
0000f0 61 94 81 bb c2 5d 10 be 25 e1 62 be 48 cb 12 bd
       -0.0039544557 -0.14098266 -0.22156198 -0.035838395
000100 96 94 3d be 40 82 75 bd af ab 6e bd 77 bf 9c 3d
       -0.18513712 -0.05993867 -0.0582692 0.076537065
000110 0c 06 2e be 93 3b 8f ba 1f 5e a6 3d 3f ef 95 3e
       -0.16994494 -0.0010927789 0.08123421 0.29284093
000120 aa 6e e1 3c 8e 98 be 3c 33 56 93 3d 36 3d 63 be
       0.027518589 0.023266103 0.071941756 -0.22191319
000130 6e fe 6f 3d 5c f1 ce bd 7d c9 6b be 54 a3 7e bb
       0.058592252 -0.101046294 -0.2302608 -0.0038854675
000140 8c 49 64 be 69 77 46 bd 13 68 3e bd a7 29 9c bd
       -0.22293681 -0.048453722 -0.04648597 -0.07625132
000150 41 1e 19 3d e9 f7 17 ba f7 6f 38 be f5 1d 00 be
       0.037382368 -0.00057971344 -0.18011461 -0.12511428
000160 56 ad 75 be e7 93 51 bd a4 95 89 3e 48 76 2c 3e
       -0.23991904 -0.05116644 0.2687198 0.16841996
000170 9b f2 2b 3e a2 8e b6 3e 9c 41 77 3e f2 36 b0 3e
       0.16791765 0.35655695 0.24146122 0.3441692
000180 4c 5e 37 bd d9 e6 bd 3d 8c 6e 35 3e 03 f9 33 3e
       -0.044767663 0.09272546 0.17717952 0.17575459
000190 a2 5d 30 3e 0f 46 88 b9 54 f4 1e bd 7f 68 bf 3c
       0.17223218 -0.0002599214 -0.03880723 0.023365257
0001a0 80 2e 0c 3e f6 80 dd bd 51 01 ce bb d1 9a 32 3e
       0.13689613 -0.10815613 -0.006286778 0.1744187
0001b0 b4 81 b4 bc 5e 4d 44 3d e2 a4 b9 3d 4a 3e 12 3e
       -0.022034504 0.047925346 0.09064652 0.14281574
0001c0 18 fd 38 bc af 1a cf bd 3e c9 30 3e 4b 0f 6d bd
       -0.011290811 -0.10112511 0.17264268 -0.057875913
0001d0 96 43 83 3c 35 4e 78 3d b4 64 bd 3e 5d 95 fe 3d
       0.016023438 0.06062146 0.36990893 0.124308325
0001e0 8d 00 e1 3d 0b cf 25 3e 21 c8 48 bd d6 63 da bc
       0.10986433 0.16192262 -0.049018983 -0.026658934
0001f0 45 52 69 bc 00 ed b4 3d c9 11 3b 3d 8e 27 3a 3e
       -0.014240806 0.08834267 0.045671258 0.18179151
000200 6b 8a f7 3d d3 6f 80 bd dd 99 5e 3d 72 4c c2 bd
       0.12086948 -0.06271329 0.054345954 -0.09487237
000210 b3 63 63 3d 74 22 d6 bd 38 18 91 bc d1 aa 15 3d
       0.055515002 -0.1045579 -0.017711744 0.036539856
000220 f5 ec 48 be 66 4f 68 bd 51 6c f4 3d c7 27 34 3d
       -0.19621642 -0.056716345 0.11934722 0.043983247
000230 52 7d 46 3e 1b 9b 95 bd 42 a0 ab 3d 80 6a cb 3d
       0.19383743 -0.07304975 0.08380176 0.09932423
000240 e1 27 d1 3d 27 90 84 3d 2c 60 5a 3e 34 cf cd bd
       0.102126844 0.064728074 0.21325749 -0.100492865
000250 1f 11 db bd b5 73 5c 3d 93 fd 47 be 06 8b e2 3c
       -0.10696625 0.053821284 -0.19530325 0.027654182
000260 50 a2 8d 3c 2c c2 ac bd 96 40 2d bc 8d b5 cd bd
       0.01728931 -0.08435473 -0.0105744805 -0.10044394
000270 e5 95 4a 3d 70 1c 0c bc c6 99 f9 3b 71 b3 01 bd
       0.049459357 -0.008551702 0.007617208 -0.03166527
000280 19 3d 1d 3e a2 be fa 3d 4a 03 26 3e a9 7b 6b be
       0.15355338 0.122433916 0.16212192 -0.22996391
000290 d7 21 8f bd 91 61 d7 3e 45 80 39 3e 36 e7 5d 3e
       -0.06988876 0.42066625 0.18115337 0.21670231
0002a0 ed 0d 6b 3e 8e 3e 24 bc 90 20 21 bc a6 c7 27 3e
       0.22954531 -0.01002468 -0.009834424 0.16384754
0002b0 bb 2c 19 3e a8 4b dc 3c cb aa 05 be 8d 15 4d 3b
       0.1495847 0.026891544 -0.13053434 0.0031293363
0002c0 ff fc 19 3e 74 55 48 bd 47 d4 ff 3d da 4b 2d 3e
       0.15037917 -0.04890962 0.124916606 0.16923466
0002d0 98 a6 a0 3c 39 1d a8 bd 31 23 da bc d1 77 83 3d
       0.019610688 -0.08208699 -0.026628109 0.064193375
0002e0 54 71 2d be 13 c3 1b bd 05 db a6 3d ce 87 de bd
       -0.16937762 -0.038027834 0.081472434 -0.108657464
0002f0 a6 21 96 bd 9f 4c 0a 3e 3d c3 13 3d 58 69 1a be
       -0.07330637 0.13505791 0.036074866 -0.15079248
000300 eb 67 7d bd fc 34 e0 bd b0 60 69 be 80 7f 33 3e
       -0.061866682 -0.10947606 -0.2279079 0.17529106
000310 f4 2a 0c 3e d2 9d ae be af d6 0b be 20 32 20 bd
       0.1368826 -0.34104782 -0.13656114 -0.039110303
000320 8b 7f 85 3c 8f 7e b9 3c 7a d6 10 3e dd 53 b4 3d
       0.016296169 0.022643356 0.14144316 0.08805058
000330 d8 01 a7 b9 fd d0 0f be 3e 1d 83 3b 06 16 34 3d
       -0.00031854096 -0.14044566 0.0040012887 0.043966316
000340 03 66 40 3d 51 4f 43 3e ee 52 99 3c 3b 64 1b 3d
       0.046972286 0.19073226 0.018716302 0.037937384
000350 72 b8 bf 3d 82 a1 df bd 20 11 1d 3e a1 18 e7 be
       0.09361352 -0.10919477 0.15338564 -0.45135978
000360 5d 58 96 bd a7 f7 42 bd 24 b6 42 bd 19 e7 28 bc
       -0.07341073 -0.04759946 -0.047536984 -0.010309004
000370 81 24 12 bd 78 ae 28 3b 9c df 3e be 3b f3 a6 bd
       -0.035679344 0.0025738757 -0.18639988 -0.08151861
000380 b9 1a 99 be ae 03 5d 3e 5c 86 02 bc d0 18 cd 3d
       -0.299032 0.21583435 -0.007966604 0.10014498
000390 e6 21 9d 3d d0 78 b0 bd b0 eb 8e bc 24 38 66 bd
       0.07672481 -0.08616793 -0.017446369 -0.056205884
0003a0 a0 ff c4 bd 0b a5 11 3e e8 ef 37 3d 0c 85 53 3d
       -0.09619069 0.14223115 0.044906527 0.051640555
0003b0 a7 63 9c bd 15 9a be bd 69 49 37 3c 60 92 3e be
       -0.07636195 -0.093067326 0.011186936 -0.18610525
0003c0 34 93 1a 3d 74 9b 87 3d 77 3b 22 3e c1 bd 50 bd
       0.03773804 0.06621447 0.15842997 -0.050962213
0003d0 1e 74 31 3e 41 b6 de 3d 07 8b 44 bd cf 39 09 be
       0.17329451 0.10874606 -0.04798415 -0.13400958
0003e0 f5 da e7 bd 53 74 23 bd 59 4f b4 bc 9d 87 34 bd
       -0.113210596 -0.039905857 -0.022010492 -0.044074643
0003f0 a9 7b 7f 3e ed 07 11 3e 7e 14 85 3e b1 65 14 3e
       0.24949516 0.1416318 0.25992197 0.14491917

conv3.bias f4 [64]
000000 2b 3b b0 3a d0 dd 02 3d 09 44 73 3d 65 24 a1 3c
       0.0013445368 0.031949818 0.059391055 0.019670675
000010 fb f9 5f bc 93 30 97 3c db f6 d2 3a 00 0e 9a 3b
       -0.01367044 0.01845578 0.0016095297 0.004701376
000020 b7 84 03 3d f3 c9 f8 3c 99 93 6d bd c7 7e 5f 3b
       0.03210899 0.030369734 -0.05800209 0.0034102665
000030 88 c1 9e 3c 46 ae 52 3d a2 48 54 3d 47 e5 f7 bc
       0.019379392 0.05143573 0.05182708 -0.030260695
000040 ab 7d a3 bd 30 e7 3b bd 36 08 ae 3d 53 e6 b7 3b
       -0.07982954 -0.045874774 0.0849766 0.0056121736
000050 e4 d0 18 3d e3 65 61 3d 6c 18 97 bd 82 17 8e bc
       0.03730859 0.055028807 -0.07377705 -0.017345194
000060 c4 37 2e bd 30 7c 5b bc df 32 1b 3d 08 86 4e bd
       -0.04253365 -0.013396308 0.03789031 -0.05042079
000070 6e 7e d0 bc 17 db 74 bd c8 82 91 bb 40 ed f7 3d
       -0.025450911 -0.059779253 -0.004440639 0.12105799
000080 92 2a 8d 3d 2a 77 b4 3d 2c 6e 24 bd d1 c0 82 bb
       0.06892885 0.08811791 -0.04014413 -0.0039902707
000090 22 37 be bd 74 28 65 3d 01 06 ad bc 3f 73 a1 3d
       -0.092878595 0.055946782 -0.021121027 0.078833096
0000a0 cd 21 a9 bc f8 b7 83 3c f8 38 97 bb e7 72 15 3d
       -0.020646 0.016078934 -0.0046149455 0.036486533
0000b0 12 9f 9d 3c 4b f1 70 bd 9a 20 87 bd a9 a2 e7 3c
       0.01924089 -0.058823865 -0.06598015 0.028275805
0000c0 31 f8 af 3d c2 68 aa bd 6d 4d 0f bd b4 db 56 bd
       0.08592261 -0.08320762 -0.03498595 -0.05245562
0000d0 79 92 24 3d ba 73 38 bd f9 d5 b6 bc bb 33 01 3d
       0.04017875 -0.04503224 -0.022318827 0.031543475
0000e0 d4 32 08 3d 75 e5 05 3d 1f 7a a3 3d d2 c4 cc bc
       0.0332516 0.03268953 0.07982277 -0.024996195
0000f0 72 18 9b 3d a7 38 3f 3c e9 04 97 bd 1d 7e ec bc
       0.07573022 0.011671222 -0.073739834 -0.02886873

conv3_bn.weight f4 [64]
000000 fb fb 37 3f 9f f7 2f 3f a7 8e 1e 3f 61 74 3f 3f
       0.71868867 0.68737215 0.6193642 0.74786955
000010 90 54 19 3f 9d 2b 5a 3f 04 0a 53 3f 41 83 f2 3e
       0.5989466 0.852228 0.8243716 0.47365764
000020 53 e0 02 3f c8 0f 26 3f 59 23 1a 3f c1 24 fa 3e
       0.5112354 0.6486783 0.60210186 0.48856166
000030 08 d6 19 3f 56 d6 71 3f 06 6d 10 3f ee f7 51 3f
       0.6009221 0.94467676 0.56416357 0.82018936
000040 0d ed f6 3e 94 ed 3e 3f f8 5c 0f 3f f6 6a 0d 3f
       0.4822773 0.74581265 0.56001234 0.55241334
000050 b2 7d 57 3f eb 1f f7 3e 85 27 55 3f a2 cd ce 3e
       0.8417617 0.4826654 0.83263427 0.4039126
000060 ef 68 32 3f cc 62 33 3f 26 7f 32 3f 54 4f 0e 3f
       0.69691366 0.7007263 0.69725263 0.55589795
000070 6b f7 e0 3e 02 b8 4e 3f 05 05 3f 3f 70 82 31 3f
       0.43938765 0.80749524 0.74617034 0.69339657
000080 5b 4f 6d 3f f2 55 ee 3e c9 ae 78 3f c9 25 00 3f
       0.9269921 0.46549946 0.971417 0.50057656
000090 32 a0 0a 3f 75 0d 54 3f bc 63 48 3f 42 3f 29 3f
       0.5415069 0.82833034 0.7827718 0.6611215
0000a0 b0 a1 47 3f bc 78 44 3f 13 72 1c 3f ce 36 1d 3f
       0.7798109 0.76746726 0.61111563 0.6141175
0000b0 1e cb 04 3f bd 1d 28 3f f6 a3 27 3f 0f 49 09 3f
       0.5187243 0.65670377 0.6548456 0.53627104
0000c0 53 42 5d 3f 03 15 3a 3f 27 8c 45 3f 65 10 53 3f
       0.8642933 0.7268831 0.7716698 0.8244689
0000d0 82 7d 05 3f c4 26 33 3f 08 4d 25 3f c1 4a 01 3f
       0.52144635 0.69981027 0.64570665 0.5050469
0000e0 99 67 fa 3e 81 26 ee 3e 01 da f3 3e 6a 03 73 3f
       0.48907164 0.4651375 0.4762726 0.94927084
0000f0 6e c2 05 3f 15 54 02 3f 14 c5 d7 3e 2e 1f 57 3f
       0.522498 0.5090955 0.42142546 0.8403195

conv3_bn.bias f4 [64]
000000 d5 27 ab be 74 f3 c0 be c8 14 a5 be 34 27 56 be
       -0.33428827 -0.3768574 -0.32242417 -0.20913392
000010 04 5a c8 be 6c 9a 58 be 37 c5 06 bf 81 d4 3d be
       -0.39131176 -0.21152657 -0.52644676 -0.18538095
000020 a6 e9 85 be 49 12 d5 be 5a e5 c3 be d5 18 13 be
       -0.26154822 -0.41615513 -0.3826092 -0.14364941
000030 16 14 9e be 25 60 ae be c7 89 ab be 94 df 40 be
       -0.308747 -0.34057727 -0.33503553 -0.18835288
000040 5a 74 85 be ba 43 59 be 17 62 8b be a5 f5 c2 be
       -0.26065332 -0.21217242 -0.27223274 -0.38078037
000050 ad 70 02 bf 4a 63 c5 bd 8b 8f b9 be 31 06 a8 bd
       -0.5095318 -0.096380785 -0.36242327 -0.08204306
000060 bc 10 b1 be cb a5 5f be fc cd 93 be fd bc 88 be
       -0.3458308 -0.21840589 -0.2886809 -0.26706687
000070 cf 7f 7f be 11 40 8d be 90 9d cd be 25 d4 be be
       -0.24951099 -0.2758794 -0.40159273 -0.37271228
000080 28 8a b3 be da 18 82 be e7 e4 21 bf 78 5e 6e be
       -0.35066342 -0.25409585 -0.632399 -0.23278224
000090 e9 ea 02 bf 72 55 e9 be 88 68 e6 be ca b4 98 be
       -0.51139694 -0.45573002 -0.45001626 -0.2982543
0000a0 44 c7 99 be 88 37 c9 be 1f be 99 be 43 fb ab be
       -0.3003484 -0.3930018 -0.30027863 -0.33590135
0000b0 50 d6 9c be 2f 03 58 be a3 0e 07 bf 86 d7 31 be
       -0.30632257 -0.21094964 -0.5275671 -0.17367372
0000c0 83 b4 b9 be bd fb bb be 28 cd f7 be c9 38 aa be
       -0.36270532 -0.367155 -0.4839871 -0.3324645
0000d0 7a c1 82 be 17 07 c8 be 32 d0 89 be 25 33 ea be
       -0.25538236 -0.3906791 -0.26916653 -0.45742145
0000e0 81 36 2f be a9 23 ba be e6 74 a1 be 81 20 1f bf
       -0.17110635 -0.36355332 -0.315345 -0.6215897
0000f0 21 cb a0 be ef c6 94 be 12 fb ab be 6d 2a bc be
       -0.31404975 -0.29058024 -0.3358999 -0.36751118

conv3_bn.running_mean f4 [64]
000000 39 60 b6 3e 67 cc 5d bf 48 5d 8f bf 8a 3a f2 bc
       0.35620287 -0.8664002 -1.1200342 -0.02956893
000010 95 08 cb be de 5f 19 be ba af cc bf 0a 56 63 bf
       -0.39654985 -0.14977977 -1.5991127 -0.8880316
000020 06 9c 20 3e 25 6d 83 bf 4b a5 c3 bf df d4 61 3f
       0.15684518 -1.0267683 -1.5284818 0.8821544
000030 ad f9 14 3e 0b 38 ef bf 51 28 ed bf ef cb 8d bf
       0.14548369 -1.8688978 -1.8527929 -1.107786
000040 ac 0d 8c bf 88 0b e7 be 14 83 2c bf 09 71 b1 be
       -1.0941672 -0.45125985 -0.6738751 -0.3465655
000050 f4 8c f5 be 7a 51 1f bf 55 ef 42 bf fd 24 80 bf
       -0.479591 -0.622337 -0.7614644 -1.0011288
000060 b3 19 61 bf 56 2d 9c bf 72 8d 91 bf 2a 0f 5b bf
       -0.8792984 -1.2201335 -1.1371291 -0.85570014
000070 4b b3 f4 bd 75 98 ee bf 1f 97 1c bf 18 e1 c9 be
       -0.1194826 -1.8640276 -0.6116809 -0.39429545
000080 12 40 2c c0 d3 e0 ce be 66 e3 de be 9e b8 2c 3f
       -2.6914105 -0.40405902 -0.43532866 0.67469203
000090 c6 80 71 bf 5a 9c b5 be a6 8e 10 bf e1 a5 70 bf
       -0.9433712 -0.3547085 -0.56467664 -0.9400311
0000a0 34 16 fe bf b4 af 04 40 b0 a4 84 bf c7 ef 00 c0
       -1.9850526 2.073224 -1.0362759 -2.0146348
0000b0 be 93 e3 be 8b a1 25 bf ff b7 5c 3e c3 27 4f 3f
       -0.44448656 -0.6469962 0.21554564 0.80920047
0000c0 19 b2 7d bf f0 cb 63 bf 8e 03 bc bf 04 4f 15 bf
       -0.9909988 -0.8898306 -1.4688585 -0.58323693
0000d0 8c 3a 2a bf 5d 00 a6 3e 95 bf 17 c0 ea 31 c3 be
       -0.66495585 0.32422152 -2.3710682 -0.3812402
0000e0 15 79 39 bf cc 52 ab bf f9 da 94 bf e4 be f4 be
       -0.7245038 -1.3384643 -1.1629325 -0.47801888
0000f0 b3 a8 e2 bf cc 89 2f c0 65 0e ee bf 94 20 13 bf
       -1.7707733 -2.7427855 -1.8598143 -0.57471585

conv3_bn.running_var f4 [64]
000000 55 3b 3d 3f 46 58 61 3f db 97 31 3f d8 82 8c 3f
       0.7391866 0.8802532 0.6937234 1.097743
000010 78 d7 1b 3f 98 5e 09 3f 56 05 dc 3f 7e 3d 34 3f
       0.60875654 0.53659964 1.7189128 0.7040633
000020 96 6a 0e 3f c8 86 3d 3f b6 2f 90 3f ee e1 42 3f
       0.5563139 0.74033785 1.126456 0.7612599
000030 d4 e2 13 3f f4 b0 75 3f df de 53 3f aa 97 8f 3f
       0.5776799 0.95973134 0.8276195 1.1218159
000040 19 c2 2d 3f 4d 2f 20 3f 0c 21 3b 3f c9 77 35 3f
       0.67874295 0.62572175 0.730973 0.708859
000050 96 7c 43 3f 15 9e 43 3f db c9 66 3f d5 f8 45 3f
       0.7636198 0.7641309 0.90151757 0.7733281
000060 a6 9b 32 3f 02 40 3f 3f 44 46 61 3f cd ed 28 3f
       0.6976875 0.74707043 0.8799784 0.65987855
000070 b5 80 2a 3f 02 4f 5d 3f e2 71 94 3f 59 5a 65 3f
       0.6660264 0.8644868 1.1597254 0.89590985
000080 b5 32 7d 3f 56 2e 6c 3f 60 98 26 3f d2 44 23 3f
       0.989055 0.92258203 0.65076256 0.63776886
000090 53 90 43 3f b4 25 37 3f 6a fa 0d 3f 4c 87 52 3f
       0.76392096 0.71541905 0.55460227 0.82237697
0000a0 39 88 6a 3f f5 fe 36 3f d2 35 7d 3f fe fd 4c 3f
       0.9161411 0.71482784 0.9891025 0.8007506
0000b0 93 4d 10 3f b9 dc 53 3f ca 4d 30 3f d5 7e 02 3f
       0.5636837 0.8275867 0.68868697 0.5097478
0000c0 e1 2b 52 3f 3e 1f 54 3f db 80 7d 3f 89 fe 1e 3f
       0.82098204 0.8286017 0.9902474 0.6210714
0000d0 10 a8 4b 3f 8d fa 0d 3f 8e 1b 63 3f 40 c2 01 3f
       0.7955332 0.55460435 0.8871392 0.50687027
0000e0 32 d7 1e 3f a7 b4 5c 3f a0 76 52 3f c8 29 ca 3f
       0.6204711 0.86213154 0.8221226 1.5794001
0000f0 96 a9 45 3f d2 59 5c 3f 7a 25 23 3f 3c 1f 52 3f
       0.7721189 0.86074555 0.6372906 0.8207891

fc1.weight f4 [128, 256]
000000 13 62 29 3d a8 58 16 3d 82 97 06 3e d4 22 1d 3e
       0.041353296 0.036705643 0.13143733 0.15345317
000010 1c a5 c8 bd 43 fa 3a 3e 3e 60 86 3b 3c 9a 03 be
       -0.09797117 0.1825953 0.0041008284 -0.12851804
000020 a4 dc ce 3c 6e e9 4b 3c c9 8f 3e 3e 7c 49 7d 3e
       0.025251694 0.012445791 0.18609537 0.24735063
000030 ce 8f 61 be 1e df 7f 3d a3 09 f0 3d c1 d6 70 3d
       -0.22027513 0.06246864 0.11720588 0.058798555
000040 4e 21 ee 3d d5 47 27 be 5e 30 21 3d 98 89 c0 bd
       0.11627446 -0.16335995 0.039352767 -0.09401244
000050 a5 b6 70 3e 5a ac bb 3d d3 9f 52 bd ad d5 a6 bc
       0.23507173 0.09163733 -0.05142195 -0.02036556
000060 32 93 5f bd c6 d6 e5 bd 3a 46 7c be 2e 00 cf 3c
       -0.054583736 -0.112226054 -0.24636164 0.02526864
000070 c9 fd 84 3e 1a 80 2d be 57 db 0d 3d f0 c2 86 3d
       0.25974873 -0.16943398 0.034633007 0.0658015
000080 e0 99 52 be 41 09 48 3e d7 91 25 be 12 cb 7e be
       -0.20566511 0.1953478 -0.16168915 -0.24882153
000090 90 98 cc be fe 0c 92 be a6 63 ec be 52 14 9a bd
       -0.39960146 -0.28525537 -0.46169776 -0.07523407
0000a0 9f cb 66 bd df 8d f2 be 44 93 46 3e ab d7 28 3e
       -0.056346532 -0.47373864 0.19392115 0.16488521
0000b0 f8 17 3a 3d 57 76 11 be ef 52 65 bd c2 fa 89 bb
       0.045433015 -0.142053 -0.055987295 -0.004210801
0000c0 19 3c 0f bf 72 2e 6d be 7e 7a ed be 75 df 30 bd
       -0.55951077 -0.23162249 -0.46382517 -0.043181855
0000d0 a2 54 04 be 04 9e d3 bd 16 93 9d 3d 3f 24 32 bc
       -0.1292291 -0.103328735 0.0769407 -0.0108729
0000e0 7f ba 84 bd 0f 8e 12 bc d1 c0 b0 bd 54 14 31 3e
       -0.06480884 -0.008945002 -0.08630527 0.17292911
0000f0 de 34 61 3e 1d 42 4f 3e dc 98 c0 bc c1 ac f4 3c
       0.21992823 0.20240064 -0.023510389 0.029867532
000100 d7 d1 95 bd b8 66 9c 3d c2 53 d1 bd 0a 30 8d 3d
       -0.073154144 0.076367795 -0.10221054 0.06893928
000110 e1 78 aa bd 0f e8 00 be b0 63 d7 bd 13 99 58 be
       -0.08323837 -0.12588523 -0.10517061 -0.21152143
000120 c8 18 bd bd b8 8f 17 3c be 75 9f 3c 2a b3 87 3e
       -0.09233242 0.009250574 0.019465324 0.2650388
000130 49 c3 b8 be 20 a0 b1 be 45 fa 28 3e 1d c0 df 3d
       -0.3608649 -0.34692478 0.1650172 0.109253146
000140 91 8e 25 3d df f7 a1 bc 0f 1d 57 3e a7 82 1c 3e
       0.040419165 -0.019771514 0.21007179 0.15284215
000150 97 87 dd 3d 8b bb 3a be aa b5 da 3e b5 34 46 3e
       0.10816877 -0.18235604 0.42716724 0.19356044
000160 d3 10 cc 3e 04 c0 a9 3e 5c 51 db 3d 0f 67 3f be
       0.39856586 0.3315431 0.107088774 -0.18691657
000170 1e 72 31 3c 0a fb 8f 3e 92 af 18 3d bd 56 97 3e
       0.01083043 0.28121215 0.037276812 0.29558364
000180 df b7 f4 bd 00 31 c9 3d 97 5e 6f be 6d 42 43 be
       -0.11949133 0.09823799 -0.23375927 -0.19068308
000190 26 a4 bf 3d 16 32 32 be 09 aa f0 3d 79 2a cd 3d
       0.09357481 -0.17401919 0.11751182 0.10017867
0001a0 a7 0b 9c bc 6f 27 24 3e a5 7a 5d be 73 d5 95 3d
       -0.019048525 0.16030668 -0.21628816 0.07316103
0001b0 5d a9 5c be 6f d9 92 be f7 ac 6c 3e 77 69 36 3d
       -0.21548982 -0.28681514 0.23112856 0.044534173
0001c0 40 76 93 be 5f 01 9a be 29 d8 9d bc 4c 80 5e bc
       -0.28801155 -0.3007917 -0.019268112 -0.013580393
0001d0 2c 05 43 bd 2c c2 8c bd 4d 0d 65 bd 44 1e 87 3d
       -0.047612354 -0.06872973 -0.055920888 0.065975696
0001e0 73 00 89 be 18 e8 d2 bc 82 1e 71 3e 65 e8 44 3e
       -0.26758155 -0.025745437 0.23546794 0.19229276
0001f0 69 f4 85 bc cd 56 fd bd e8 f7 17 be 6b 1c e1 bd
       -0.016351895 -0.123700716 -0.14840662 -0.109917484
000200 3d 01 1a 3e 3d 15 8a bd 9e fa 82 ba 34 4d 00 39
       0.15039535 -0.06742332 -0.0009992903 0.00012235792
000210 2f de a9 3d 39 c6 6c 3d d9 70 c3 3d 9f f7 4b 3c
       0.08294331 0.057806227 0.09543008 0.012449174
000220 68 85 20 be 81 20 fb 3c 03 fb 98 bc 8e 99 f7 bd
       -0.1567589 0.030655148 -0.01867438 -0.12089835
000230 79 34 22 bc e2 5e c3 be 4a d1 d9 bd 9f ec 06 3d
       -0.009900206 -0.38158327 -0.10635622 0.032940503
000240 78 13 4f 3e f0 ba 17 3e 34 e6 56 3e 29 ba 13 be
       0.2022227 0.14817405 0.20986253 -0.14426483
000250 46 28 de 3d ae 4b 21 bc 76 e5 30 be c2 09 dd bd
       0.10847525 -0.009844704 -0.17275032 -0.10792877
000260 cf 12 67 be 3c f1 d5 bd 90 64 87 3d dc 2e a5 3d
       -0.22565769 -0.104464024 0.06610978 0.08065578
000270 83 02 67 bd ad 60 75 bd 58 6c 37 3d 19 e7 72 be
       -0.05639888 -0.05990665 0.04478106 -0.2372097
000280 5a 03 37 be d3 15 e3 bd 41 09 c4 bb 45 95 13 be
       -0.17872372 -0.11088147 -0.0059825485 -0.1441241
000290 a1 54 aa bd 20 ba 55 bd 63 3f 87 3d e9 d1 2d bd
       -0.08316923 -0.052179456 0.06603887 -0.042436514
0002a0 16 57 60 be 56 da 3a be 49 ef 5c be b1 17 3e bd
       -0.2190822 -0.18247351 -0.21575655 -0.046409313
0002b0 d3 14 23 bc de 38 4a 3d c0 1b 8d 3e 65 13 61 3e
       -0.009953695 0.04937064 0.27560234 0.21980055
0002c0 2d 76 28 be 74 d9 51 be f9 c3 06 be 86 94 ba be
       -0.1645133 -0.20493108 -0.13160695 -0.3644144
0002d0 d1 7e 3a be cf 92 86 be 7f 1e c3 3e f3 1a 74 3e
       -0.18212439 -0.2628388 0.38109204 0.23838405
0002e0 f8 c4 73 bd c6 9b 4e bd 6f 82 20 3e a3 94 a1 3d
       -0.059514016 -0.050441526 0.15674756 0.07889678
0002f0 69 e8 65 be 56 84 c7 be a3 2a dc 3d 37 f5 b7 bd
       -0.22451939 -0.38968152 0.1075032 -0.08982318
000300 4c 4e 24 3c 8f d3 8e ba dc b9 41 3e 89 32 3a 3e
       0.010028433 -0.001089679 0.18918556 0.1818334
000310 b6 f6 8d 3e d9 6b 6f be 2b 8b 91 3e a1 3d 30 3e
       0.27727288 -0.23380984 0.2842649 0.1721101
000320 79 b1 a2 bd 7f 25 37 be bf 63 16 3d b9 1c 70 3e
       -0.079440065 -0.17885397 0.03671622 0.23448457
000330 d0 6c 0e be db c8 a4 bd 50 fd 81 3d 85 31 06 3e
       -0.13908696 -0.08046123 0.06347144 0.13104828
000340 82 a6 d1 be cd 35 b3 be db 34 99 3e 1b 47 91 3e
       -0.40947348 -0.35001984 0.29923138 0.28374562
000350 80 11 54 be 81 8c 3f 3b c5 a8 70 be 05 39 28 be
       -0.207098 0.0029228034 -0.2350188 -0.16428001
000360 c6 69 14 be bb fd 34 be 06 6c a2 3e 81 11 64 3e
       -0.14493474 -0.17674915 0.3172304 0.22272302
000370 3c 61 2e 3e c8 3e 1f 3e 23 e4 21 bd f6 4c 0a 3e
       0.1702928 0.15551293 -0.03952421 0.13505921
000380 81 f5 85 3d b7 1c 9e 3d 32 b1 0a be 46 25 01 be
       0.06540967 0.07720321 -0.13544157 -0.12611875
000390 69 b3 02 3d 99 76 6b bd bf f9 39 3d 32 9d ee bd
       0.03190938 -0.05748615 0.045404192 -0.116510764
0003a0 0c ee a6 3e 9a a3 3c 3e a3 b8 04 3a 68 90 4f 3d
       0.3260349 0.18421784 0.00050629134 0.050674826
0003b0 90 3f 77 be 89 d9 09 be 5c 96 89 3d 70 ae 69 be
       -0.24145341 -0.1346189 0.06718132 -0.22820449
0003c0 74 4f ad 3d 7e 8c 32 be e5 f4 da 3d 83 c4 5f bd
       0.0846242 -0.17436406 0.10691241 -0.054630768
0003d0 36 e1 10 be 96 0a 1e bc 04 3c de be 0c d2 a0 be
       -0.14148411 -0.009646079 -0.43405163 -0.31410253
0003e0 46 da 5e 3d e3 e4 61 3e d5 22 7a 3d 15 75 8e bd
       0.05440738 0.2205997 0.061068375 -0.069559254
0003f0 37 d9 79 be 5e a9 c3 bd 9c eb 74 bc c2 3b fc bd
       -0.24399267 -0.095537886 -0.014948752 -0.123160854

fc1.bias f4 [128]
000000 75 95 28 3e 85 54 c6 3d a6 3c 5c 3e 3f 2c 27 3d
       0.16463263 0.096840896 0.2150751 0.04081368
000010 87 4f b9 3d 22 95 5b 3d f9 00 4c 3e ad 89 0e 3c
       0.09048372 0.05360902 0.19922246 0.008699817
000020 5c 9e 61 3d 0c 40 15 3d b3 bb 96 bc 61 5e c4 bd
       0.055082664 0.036438033 -0.018400049 -0.09588314
000030 91 30 03 3e e6 5d a1 bd bc 89 25 bd 02 07 a9 bc
       0.12811495 -0.07879238 -0.040414557 -0.020633224
000040 42 69 5f 3e 15 63 a0 3d 28 94 4f 3d 8c 2f e1 3c
       0.21817496 0.078313984 0.050678402 0.027488492
000050 05 dc 70 bd c6 71 c8 3d 81 1a a6 3d db 48 ab 3d
       -0.058803577 0.097873256 0.08110524 0.083635055
000060 cf a2 d3 3d f6 64 e9 3d 38 1a 9c 3c 23 a8 8f 3c
       0.10333788 0.1139621 0.01905547 0.017536229
000070 ed de 9c 3d e1 79 8b 3b 9b 67 a7 bd 2e a5 d3 3b
       0.07659707 0.0042564725 -0.08174058 0.0064589
000080 97 61 a2 bd cc c9 f6 bc 90 2f 12 bd c1 16 6e 3c
       -0.0792877 -0.030125521 -0.03568989 0.014531792
000090 f8 74 eb 3d 9e 0a 94 bd 99 b8 eb 3d 77 74 c7 bd
       0.114969194 -0.072285876 0.115098186 -0.09739011
0000a0 92 ee 00 bd c2 72 24 3d 9b 59 60 3d 59 d1 a5 3d
       -0.03147752 0.040148504 0.054772954 0.080965705
0000b0 77 17 87 3d 03 57 2f 3d 3e 9a 9e 3d 1e e4 45 bd
       0.065962724 0.04280759 0.07744263 -0.048313253
0000c0 d1 62 41 bc 47 45 31 3e 73 c1 09 3e 34 fc 22 3e
       -0.011803345 0.17311583 0.13452701 0.1591652
0000d0 fc 1b 96 3d f9 91 e8 3d d9 7f 28 3e 16 1c 11 3e
       0.07329556 0.11355967 0.1645502 0.1417087
0000e0 3b 0d 23 be 88 91 8f 3b 2a 7f e8 3b 87 6e 0b 3d
       -0.15923016 0.0043813623 0.0070952373 0.034040954
0000f0 6c d3 dc 3d 27 b3 c3 3c fb eb 0e be 6b 00 d2 3d
       0.10782513 0.023889137 -0.13957207 0.10253986
000100 04 4b 22 bc 8a 73 0f be 23 98 da 3d 9c 54 27 bd
       -0.00990558 -0.14008918 0.10673549 -0.040852174
000110 be 6f 93 3c 39 4f b6 bd f1 8e 50 3e 85 d1 05 bc
       0.017997619 -0.08901829 0.20367028 -0.008167629
000120 56 42 b5 bd fb 0e b9 38 4c 7e 8c bc 25 7e 73 bd
       -0.08850543 8.824278e-05 -0.017150067 -0.059446473
000130 03 15 05 3c 1d 61 05 bd ec c4 c7 3c b5 d6 05 3e
       0.008122685 -0.032563318 0.024385892 0.13070185
000140 b2 a7 07 3e d0 46 bd 3d 17 fa 07 3d f8 b8 d3 3d
       0.13247564 0.09242022 0.03319749 0.10338014
000150 75 f2 8d bd 9c 02 d9 3d 14 de 8e bd 9e 7e d3 3d
       -0.06931011 0.10596201 -0.06975952 0.10326885
000160 f4 3f 88 3a 66 f5 9c 3d d2 f6 24 3d 4b 5c f7 bd
       0.0010395036 0.076639935 0.04027445 -0.1207815
000170 33 f3 04 3e 83 fa 1d 3e b4 7a 21 bd 39 3b 35 3d
       0.12983398 0.15427594 -0.03942366 0.044245932
000180 31 d8 fb 3a b7 a7 62 3e fc 13 17 3e 30 87 80 3d
       0.001921421 0.2213429 0.14753717 0.06275785
000190 0c c9 55 3d b0 4f b2 3c 1d fd 29 3e 3b 10 e1 3d
       0.052193686 0.021766514 0.16600461 0.10989424
0001a0 26 b5 e1 3d c6 82 87 bb 3b 91 fe 3d 21 ee a9 3d
       0.110208794 -0.0041354625 0.12430044 0.082973726
0001b0 02 bb 37 3e 3b b4 f1 3d 82 ce d1 bb 87 85 96 bd
       0.17942432 0.11801954 -0.0064027915 -0.07349687
0001c0 93 d1 5b bd cc f3 96 bc 5d 67 b8 bc b3 b6 62 3c
       -0.053666662 -0.018426798 -0.022510225 0.013837504
0001d0 2b cf da 3d 5c e4 35 3e ad d7 b3 3d 20 40 26 bd
       0.106840454 0.17762893 0.08781371 -0.040588498
0001e0 0f ed 16 3e 78 da 45 bc 6e 8b ad 3d 45 bd d8 bc
       0.14738868 -0.012076013 0.0847386 -0.026457438
0001f0 24 23 f3 3d 50 9b 44 3b e7 51 96 3c 18 2c 80 bd
       0.11871937 0.00299998 0.018349601 -0.0625841
