cifar10/models/very_tiny_cifar10.model (torch_old, 64031 bytes, 22 tensors)

conv1.weight f4 [8, 3, 3, 3]
00000000: b206 dc3d 49d6 0f3e 76fd f03d 1746 09bd
00000010: c60d e4bc b6fc fcbd cdee dfbd 1b01 bebd
00000020: f9a2 1cbd bd78 bfbd fc1c ed3d 011f c3bc
00000030: b020 13be c185 1ebd 82ed ed3d c605 ac3d
00000040: 0745 043e e4c9 f03c 4783 493e 2314 16bd
00000050: 98c8 24be 8c4a f0bd 8489 373e 1731 7a3d
00000060: 4346 393e 0cc2 803c 0332 72bd fe17 803d
00000070: c0c3 453e f83d 39be 32ae 44be 6df5 3b3d
00000080: 0bf4 7f3e 9482 083d 6cd1 22be bc86 95bc
00000090: 0458 85ba 4753 093e 6dfa f4bd b119 35be
000000a0: d4ed 023e 3272 973e 110e a83d 2c80 bfbe
000000b0: 892b 48bd 909a 383d 74da 483d 0546 10be
000000c0: 7b1f 54be 498f 783e d3db ed3d 02e4 053e
000000d0: e348 6ebe 699c 5d3c 1242 d53c 8586 31bd
000000e0: 2e94 f03d 227d c5bd 9994 c2bd 3155 083e
000000f0: c0b3 d8bd 2d82 bc3c 825b 4d3e 67d1 2cbe
00000100: 79cc efbc 9534 cbbd acc5 64be 9605 513d
00000110: 7673 263e f25d 3bbe 034f 63be f7a7 363e
00000120: 349a 3ebe d326 2c3e 54a5 9c3e 832f 6abe
00000130: 0c6b 9c3d 91f7 a43e 6ee5 63bd b300 933c
00000140: 262c 8a3e 3244 3bbe 24e4 153e ada7 633e
00000150: 208d 683e 16bb 6f3e e294 553e dc0c 943d
00000160: 32e1 303e f4bb 913d 4f1b ee3c f7b8 69be
00000170: a9cb 3abe d411 61be b89a 9dbe 4e64 79be
00000180: 42fa 38be 491f 29be 745d 40be 9e0e 723e
00000190: b0fd b33d 68d2 69bd 0d14 953d 95bb 933c
000001a0: 85d3 64bd ef88 e33d 8d3a b4bd 2e68 983c
000001b0: bdad 33bd 3d24 5fbd b7cc 703e 7ca4 fa3d
000001c0: 53b7 8f3d 6f41 84be 98ee 5ebe dedb a0be
000001d0: 9020 a6bd 4a22 113d d7a0 85be ff20 90bc
000001e0: 4829 76bd 0a89 383d c2e2 66be 8744 1fbe
000001f0: b3cd 1c3e 1512 953d 112f bb3d 5e00 63be
00000200: fc9c 3dbd 312d 5c3e 590e 143e 45c3 8b3d
00000210: 0c86 a83e 7895 cc3e f5d1 9f3e 7c81 d53d
00000220: 9ffb e93d b655 15bd 0c0c 503e 7a8a d73c
00000230: 3350 69be b8e2 313d c6a1 8bbe 8a71 94be
00000240: 8fe5 58bc b7e2 28bd 8e9a 1bbd 5e61 d4bd
00000250: 12be 2b3e ee2f 70be d254 17be 1680 55be
00000260: bfbc 82bd 07f4 87be 1087 63be b964 243e
00000270: a7de 97bd d5e5 5d3e b050 463e 6e45 233e
00000280: 5285 8e3e c623 e83c 3f42 39be ede9 9abe
00000290: 4618 4b3d bba1 3bbd 38f2 0c3f 047f 303e
000002a0: 82b2 133e d015 0bbe 35d5 2dbe 2549 b6bd
000002b0: 5b65 82bd 9721 953d 6e06 3e3d 5e1c e83e
000002c0: 22d0 ccbc f366 ff3c ffc0 3bbe 528f 4fbe
000002d0: 0ff0 42be 6b36 453d c920 533e 57cc eb3c
000002e0: 5f4a 823e 4aad 5bbe 0bce 6d3d 7255 04be
000002f0: cf99 3abd b9a6 bf3d 6ca7 27be 8711 b93d
00000300: edb7 0c3e ac4e 8cbe cef1 113d 1db4 c63d
00000310: ea12 5ebe a42d 263e 3a32 5b3e 008d 06be
00000320: 6279 70bd 141f b33d 386e 65be 4dc4 293e
00000330: 3d0e 4a3c e483 1cbe 0b35 0f3e 4504 873d
00000340: a462 69be 26c0 a33d e3ae 2a3e 4723 99be
00000350: 90d1 4f3e d772 a83d 1562 d9bd 1790 d7bc
0.107434645 0.14046587 0.11767094 -0.03351411 -0.027838599 -0.12352888 -0.109342195 -0.092775546
-0.03824136 -0.09349201 0.11577794 -0.023818495 -0.14367938 -0.038701776 0.11617567 0.08399539
0.12916957 0.029393144 0.19678985 -0.036640298 -0.16092145 -0.11732969 0.17923552 0.061081972
0.18093209 0.015717529 -0.059129726 0.06254576 0.19312954 -0.18090045 -0.19207075 0.045888353
0.24995439 0.033327654 -0.159002 -0.018252723 -0.0010173325 0.13410674 -0.119618274 -0.17685582
0.12786037 0.29579312 0.08205808 -0.37402475 -0.048869643 0.045069277 0.049036458 -0.1408921
-0.20715134 0.24273409 0.11614194 0.1307526 -0.23269992 0.013526061 0.026032481 -0.04334118
0.11747013 -0.09643008 -0.09500999 0.13313748 -0.105811596 0.023011291 0.20054439 -0.16876756
-0.029272305 -0.099221386 -0.22341031 0.051030718 0.16254982 -0.18297556 -0.2219811 0.17837511
-0.18613511 0.16811685 0.30594885 -0.22869687 0.07637605 0.32220128 -0.055638723 0.01794467
0.26986808 -0.18287733 0.1463781 0.22231932 0.22710085 0.23411211 0.20857576 0.07229015
0.17273405 0.07115927 0.029065756 -0.22824465 -0.18241753 -0.21979457 -0.30782104 -0.2435467
-0.18064216 -0.1651584 -0.1878565 0.23638389 0.087886214 -0.057085425 0.07279215 0.018033782
-0.055865783 0.111101024 -0.0880023 0.018604364 -0.04386686 -0.05447792 0.23515593 0.12238404
0.07017388 -0.25831172 -0.21770704 -0.31417745 -0.081116796 0.03543309 -0.26099274 -0.017593859
-0.060097963 0.045052566 -0.22547439 -0.15553485 0.15312843 0.072788395 0.091398366 -0.22168109
-0.04629229 0.21501614 0.14458598 0.06824354 0.3291477 0.39957786 0.31214872 0.10425088
0.11424946 -0.036458693 0.20317096 0.026311148 -0.227845 0.043429106 -0.2727186 -0.28992873
-0.013238325 -0.041231837 -0.03798919 -0.10370134 0.16771725 -0.23455784 -0.1477845 -0.20849642
-0.06383657 -0.26553366 -0.22219491 0.16054048 -0.074155144 0.21669705 0.19366717 0.15944454
0.2783609 0.02833737 -0.18091677 -0.30256596 0.049583696 -0.045808535 0.55057096 0.17235953
0.14423564 -0.1358254 -0.16975863 -0.0890067 -0.06366988 0.072817974 0.04639285 0.45334142
-0.02500159 0.03117702 -0.18335341 -0.20269516 -0.19036888 0.0481476 0.20617975 0.02878396
0.25447366 -0.21452823 0.058057826 -0.1292322 -0.04555684 0.09357972 -0.1637246 0.09036546
0.13742037 -0.27403772 0.035630994 0.09702323 -0.21686903 0.16228348 0.21405879 -0.13139725
-0.05870951 0.08746162 -0.22405326 0.16578789 0.012332496 -0.15284687 0.13985078 0.06592611
-0.22791535 0.07995634 0.16668276 -0.29909727 0.20294785 0.08225029 -0.10614411 -0.026313825

conv1.bias f4 [8]
00000000: 7053 28be 52f2 5c3c 1301 593e 937c 02be
00000010: 6b45 2abe a20a 97be 30c1 38be 451d 343e
-0.16438079 0.013485508 0.21191816 -0.12742834 -0.16628043 -0.295003 -0.18042445 0.1758929

conv1_bn.weight f4 [8]
00000000: 7251 42ba 992c ab3e 5657 b93e aaa4 aa3e
00000010: f8c2 bb3e 7c95 9e3e 7c4d fc3e de0e 2e3f
-0.0007412649 0.33432463 0.36199445 0.33328754 0.36672187 0.30973423 0.49277866 0.67991436

conv1_bn.bias f4 [8]
00000000: f2fc 83bc 68b3 73bc 4869 013f 1cc2 193e
00000010: 581e 433e 106e e13e 9fa6 f03c 13a9 afbc
-0.016111825 -0.014874317 0.5055127 0.15015453 0.19054544 0.44029284 0.029376326 -0.021442926

conv1_bn.running_mean f4 [8]
00000000: 83a8 6cbe 0bdc c73c 76a0 2a3e 21cb 9bbd
00000010: 6320 63be ddb8 3cbe 1835 46be 3bc1 2c3e
-0.23111157 0.024396917 0.16662773 -0.07607103 -0.22180323 -0.18429895 -0.19356191 0.16870587

conv1_bn.running_var f4 [8]
00000000: 6f12 203e e366 1d3e 7bfc 7c3f 2af9 8e3e
00000010: 0135 fd3e 19dd d73e 9726 903e 6f99 993e
0.15632032 0.1537128 0.98822755 0.27924472 0.494545 0.42160872 0.28154442 0.29999873

conv2.weight f4 [16, 8, 3, 3]
00000000: 51b8 a6bc 98d2 3ebd b0bf cebd 7102 09bd
00000010: 4a36 1dbd 98ca 67bd 1c2a 74bd c86d 26bc
00000020: 3cbd a8bd ce67 15be dddb d9be b405 4cbe
00000030: 4f97 fb3e 8de5 ad3d 0d8c 693d 888a 21bd
00000040: 4946 6fbe e281 55be caf6 4b3d eb58 f73d
00000050: 7a69 ebbc 37b2 31be 974e 1abe 51c5 14be
00000060: 5b78 a5be a9fb 3bbe 9c4d c33d 7465 203e
00000070: 9666 f8bd db39 e33c 23f2 d73b ade8 a9be
00000080: 9c79 053e b209 2abc 9f30 03be 2e79 183e
00000090: 5606 803c 2a99 febc 9773 4b3d d897 823d
000000a0: df92 543d 7419 17bd 8e6b 06be 0377 1b3d
000000b0: ddda 84bd e450 96be 0803 89be 4afa cdbc
000000c0: 0e76 273e 620b 533e 0d68 763e e0ee 243e
000000d0: d004 233c cecd f23c 9348 5cbd b43b 5a3c
000000e0: 0745 2b3e b362 f03d 07d7 373e 0593 ab3e
000000f0: 6a78 ba3d db9d 233d c42c 073e 44d3 ae3c
00000100: 6325 4abd 1203 4d3e e082 a53c a7c8 05bc
00000110: c761 243e cc14 12be 2080 bfbd 5e30 7abd
00000120: ce24 9dbc aea5 ad3d 533f 9cbd 4756 b53c
00000130: a995 5fbd 2d96 41bc 6580 4f3d c7cc 08bb
00000140: 459a 6cbc 4e35 fdbb 17ca e23c 58ed 043d
00000150: e518 123e 0610 023c 4978 ee3d d5c2 df3d
00000160: f5f8 163e 1bfa 0c3e 54f5 a43c b1d2 18be
00000170: c0f4 babd b2a5 3ebd 8942 03be 62d5 f2bd
00000180: 4534 f9bd 1b78 bfbe dfa7 b8be 9479 ee3b
00000190: 5395 cc3d 84b7 9e3d a84b 193e 69d9 81be
000001a0: f70a b4be 6cad 343d 17f9 f3be 295e 4fbf
000001b0: 9d89 213c 7b6c eeba 7817 93bd 4e3a 993d
000001c0: f621 ffbd 2cbd 00be 4def 0e3b 9085 4cbd
000001d0: b24f 2bbe f2d7 983e 6224 77bd 9587 cfbd
000001e0: 3bd1 433e 5448 97be a30c 74be 7cac d43d
000001f0: d38b 09be 7d6b 2dbe c7dd fdbc 1216 c93c
00000200: 5991 edbb 0892 93bd 699c 083d 9f43 58bd
00000210: 2e6c f2bd ef5b 1bbe 120d 21be 43c5 223d
00000220: ad74 65bc 9ff9 cbbc 2d62 773c 6079 3c3b
00000230: dd20 aa3d d0fa 6a3d a364 d33d d0ed a43d
00000240: 4dcb d0bd 718b c8bd c91c a03d 2abd 0bbd
00000250: 7959 89bd df47 9cbc 1f88 603d 7943 2a3d
00000260: 188f bc3d a931 2fbe 3964 043e 182c 533d
00000270: 1d68 0dbc 4bbf acbd b098 eabd b627 153c
00000280: 482b 1abe f71c 34be b99c 633e a816 f1be
00000290: bc5e 27be 1f88 e0be 6582 8d3e 9bbc 3e3e
000002a0: c5bc 003d f1d4 613c e2fa 273d 6a43 263d
000002b0: 07dc d6bc 6113 54be c199 5b3e 94de 3abc
000002c0: f32a 35be f807 793c 3618 633d 2379 643e
000002d0: 2d84 ccbd 17bc bb3d 6e30 ac3d 65d9 3cbe
000002e0: 01f7 533c eacb 853e b6cb 803e d8e8 0a3e
000002f0: 81cd 803c 63ee 593d 171e 093d 3d53 83bd
00000300: 66b5 d33d e949 fabd 7b7e 183e a77f a9bd
00000310: 1cc2 0b3e 87c0 1c3e 1092 423e 5222 bd3d
00000320: e664 86be a800 d23d db7f 25be ac1d 093e
00000330: c7a5 41be 1bdc 733e bff7 9b3d a897 62bd
00000340: f537 a6bd 2e2b 923d 4eb7 a6bc 5cfe 373e
00000350: ff27 1abe 2814 813d 8eca 57be db93 80bc
00000360: d4af f93d f63e 35bb 9d1b fa3d 08e7 02bd
00000370: 1177 edbd 1dfc a9bd 7703 533d ee85 913d
00000380: d505 193d 2faf 733d 36b2 aa3c 3891 d33d
00000390: 0c52 c63c 9f83 2f3e 052e 123e df56 14be
000003a0: 1ef5 89bd 0a76 8d3d 81be 75be 326a 80be
000003b0: a4ad 5dbd c769 983d da35 433d 032a 80ba
000003c0: 98de 2e3e 5dc7 1c3e 60e5 9f3d e79a 9d3e
000003d0: 9f9d cfbd d325 8f3e fad5 463e 31f3 d0ba
000003e0: a31a 213e 5190 bcbe 28ef ccbe 243f d0bc
000003f0: f024 1bbc 1cd0 803d 5dda 313d b131 5b3c
-0.02035156 -0.046587557 -0.10095155 -0.033449594 -0.038381852 -0.056589693 -0.05961047 -0.01015801
-0.082392186 -0.1459038 -0.42550555 -0.1992405 0.49138877 0.08491049 0.05701833 -0.039438754
-0.23366655 -0.20850328 0.049795903 0.12077507 -0.028736819 -0.1735314 -0.15069042 -0.14528395
-0.32318386 -0.1835772 0.09536287 0.15663701 -0.12128942 0.027737549 0.0065901442 -0.3318533
0.13034672 -0.010378288 -0.12811516 0.14889976 0.015628021 -0.031078894 0.049670782 0.06376618
0.05189788 -0.03688951 -0.13126966 0.037955295 -0.06487057 -0.2935859 -0.26760125 -0.025143761
0.16353628 0.20609811 0.2406313 0.16106749 0.009949878 0.029639151 -0.05378015 0.013319898
0.1672555 0.117375754 0.1795312 0.33510605 0.091049984 0.039945465 0.1320067 0.021340974
-0.04935206 0.20020702 0.020204008 -0.008165515 0.16052924 -0.14265746 -0.0935061 -0.061081283
-0.019182589 0.084788665 -0.07629266 0.022135867 -0.054586086 -0.01181559 0.050659556 -0.002087401
-0.014441078 -0.0077273017 0.027684255 0.03245291 0.14267309 0.007938391 0.11644036 0.10925833
0.14743407 0.13767283 0.020136513 -0.14924122 -0.091287136 -0.046544738 -0.1281835 -0.11857106
-0.12168173 -0.3739632 -0.36065575 0.007277677 0.09989419 0.077498466 0.14970267 -0.25361183
-0.35164616 0.0441107 -0.47650978 -0.8100305 0.00985947 -0.0018190289 -0.07182211 0.07481824
-0.124576494 -0.12572163 0.0021810115 -0.049932063 -0.1672962 0.29852253 -0.06033743 -0.10133282
0.19122784 -0.2954737 -0.23832946 0.10384461 -0.13432245 -0.16935535 -0.03098954 0.024546657
-0.007249993 -0.072055876 0.03335229 -0.052798864 -0.1183704 -0.15171789 -0.15727642 0.039738905
-0.014004868 -0.024899302 0.0150990905 0.0028758869 0.083070494 0.0573681 0.10321929 0.08053172
-0.101950265 -0.09792221 0.0781799 -0.034115948 -0.06706519 -0.01907724 0.054817315 0.041568253
0.092069805 -0.17108788 0.12928857 0.051555723 -0.00863078 -0.08434924 -0.11454904 0.009103706
-0.15055573 -0.17589174 0.22227754 -0.47087598 -0.16344732 -0.43853852 0.27638546 0.18626635
0.031430025 0.013783679 0.041010745 0.040591635 -0.026227964 -0.20710517 0.21445371 -0.011405606
-0.17692165 0.015199654 0.05544301 0.22311835 -0.09986148 0.09166735 0.08407675 -0.18442304
0.012937308 0.26132137 0.2515542 0.13565385 0.015722992 0.05320586 0.03347596 -0.06412361
0.103373334 -0.122211285 0.14891998 -0.08276301 0.13648266 0.15307818 0.19001031 0.09235062
-0.26248854 0.102540314 -0.16162054 0.13390225 -0.18910895 0.23814432 0.07615613 -0.055320412
-0.08116142 0.07137142 -0.020351078 0.17968124 -0.1505432 0.063026726 -0.21073362 -0.015695503
0.1219174 -0.0027655936 0.12212298 -0.03195861 -0.11594976 -0.0830004 0.051516976 0.07105623
0.037359077 0.05949324 0.02083693 0.10330433 0.024209045 0.17140053 0.14275368 -0.14486264
-0.067362055 0.0690728 -0.23998453 -0.2508102 -0.054120675 0.074420504 0.04765878 -0.0009778145
0.170771 0.15310426 0.07807422 0.30782244 -0.10137486 0.27958545 0.19417563 -0.0015941617
0.15732817 -0.36828855 -0.40026212 -0.025420733 -0.009469256 0.06289694 0.043421138 0.013378547

conv2.bias f4 [16]
00000000: 4d20 203e de52 28bc 1dc9 3abd 5875 95bd
00000010: 96c6 42be b23f b2bd af12 70bd e3ff 18bd
00000020: b91e a03c ae5c df3d 4e1d 8fbb 784d d73d
00000030: d7a2 05be 5571 3b3e 40be 08be adcc 55bc
0.15637322 -0.010273663 -0.045601953 -0.07297772 -0.19021067 -0.08703555 -0.058611568 -0.037353408
0.0195459 0.10906349 -0.004367507 0.10512823 -0.130504 0.18304951 -0.13353825 -0.013049287

conv2_bn.weight f4 [16]
00000000: 5abc b93e 1148 253f 85e9 9e3e 3f2f d53e
00000010: 552f 613f c972 483f fb9f 0f3f 5b5f f03e
00000020: 20aa 333f 9546 f23e 2e46 063f d485 ae3e
00000030: ac76 2e3f 828e 2e3f 2560 2f3f 7427 c23e
0.36276513 0.6456309 0.31037536 0.41637608 0.8796285 0.7830015 0.56103486 0.4694775
0.70181465 0.47319475 0.52450836 0.34086478 0.6814983 0.681862 0.6850608 0.37920725

conv2_bn.bias f4 [16]
00000000: b93c f0bb 619c 1bbd b348 a73d 7aa7 3bbe
00000010: e022 babe e485 11be 147e 71be e97a 9f3e
00000020: c0f3 383d 20d3 603e 9487 f13e cdd1 8d3c
00000030: abf4 e4bd 75c2 b6be fe8f c3be da3a eb3e
-0.0073314575 -0.03799093 0.08168163 -0.18325606 -0.36354733 -0.14211231 -0.23583251 0.3114846
0.045154333 0.21955538 0.4717375 0.017311955 -0.11179479 -0.35695234 -0.38195795 0.45943338

conv2_bn.running_mean f4 [16]
00000000: 0d85 613c 6f17 c9bf 0c6b 543d 03b4 053d
00000010: 33ff 83bf d693 80bf 4f09 0ebf 640f 383f
00000020: 022c 39bf a0c5 023f c975 12bf 28b5 c7bd
00000030: a2b3 413e 9528 34bf 3821 f9bd 4e48 7b3e
0.013764632 -1.5710276 0.0518599 0.032642376 -1.0312256 -1.0045116 -0.55482954 0.71898484
-0.72332776 0.510828 -0.57210976 -0.0975135 0.1891618 -0.70374423 -0.12164539 0.24539301

conv2_bn.running_var f4 [16]
00000000: 6557 643e fc1d 703e 1566 e73d 97dd e83d
00000010: b0da 033f f3fe ce3e 8026 2a3e a8f5 953e
00000020: 1e4a b53e be58 273e fa5d bc3e 376d 473e
00000030: 97cc 2f3e 09e8 823e 70c0 7a3e a6db 1c3e
0.22298963 0.23448938 0.112987675 0.1137039 0.51505566 0.40428886 0.16616249 0.29288983
0.3540811 0.16342446 0.36790448 0.19475256 0.17167889 0.25567654 0.24487472 0.15318164

conv3.weight f4 [32, 16, 3, 3]
00000000: 1422 573d f47d cabd c8f8 60be 9dc9 27bc
00000010: f709 bfbd 0405 0ebe 38a8 303e 33f0 8cbd
00000020: 4b63 b3bd c48d 37be 37f5 463b 40d7 313e
00000030: 25ba b33c be2a 803d 3ca5 963e 6645 a73c
00000040: a214 22bc 63e9 79bd ec0d de3d 5e54 123e
00000050: 17ad f03d 1c35 f53c 358f 543d 4067 483e
00000060: a3ae ccbc d7d2 e8bd 810f cfbd 0439 023e
00000070: e1fc 6fbd ce41 923d 854e b23c ea53 17be
00000080: 05bf 2b3e 4af6 63bd 22f4 a8bd 82cc c53d
00000090: 5cd4 813d a9f5 c23b 0a66 35be 73db 543e
000000a0: 71fb fb3c b54d 53be 8cdf 703e 5e7b debb
000000b0: 5f71 0cbf fdec e3bd 45c7 42bd 2e6d 5abc
000000c0: 40a5 bebd 77cf 8dbd 6e4a 483b d393 ad3d
000000d0: fb21 203e 52a1 b1be 2cff c5bc 6625 4e3c
000000e0: ca68 84bd a8d9 f5bc 4d1d 0cbd 7056 5fbd
000000f0: 4a0b 613e a304 733d 2f67 25be 2222 7ebd
00000100: 98a8 ca3c 1133 a7bd b469 5cbd 7e30 bd3d
00000110: 4b2a 1cbe 5f4b 18bd 3486 043e b2ec c8bd
00000120: 896e b13d a646 abbd 1276 2ebe 5446 0bbd
00000130: 1e4d 643e ee18 5cbe 4c4f 29be 02cd 9d3e
00000140: 1cbb e7bd 4acb 723d ce29 3abd af21 d9bc
00000150: 3fad 863b 18a4 293e db47 9abd b220 f6bd
00000160: 70fc c03d 0147 823c f127 0cbe a846 0dbe
00000170: 47f8 2f3e 7b68 3ebe 1a6a da3d ff04 843d
00000180: bbd2 84be c4b0 1e3e dae8 853e 75b0 fe3c
00000190: 34fa 81bd 0eb8 26be c09f 143e e807 c7bd
000001a0: d0f9 a6be d839 b33e db51 54be 4461 d8be
000001b0: 195a f8bd b45c 67be 93f1 05be f24a 13be
000001c0: b825 59be 1c46 193e 7f5a 2ebe ff0e aabd
000001d0: 22a5 043f c186 cabd 683e 613d 8291 a23d
000001e0: 30ff 4cbe 76e8 05be 37b5 b0bd 986d 4bbe
000001f0: eaa3 8dbe a5d7 923c d65f 35bd ed41 033d
00000200: 0bb5 0b3e 392b 633c 9e2b 0abe 3176 8bbd
00000210: 9a70 583d 365e 6b3d 1727 583d df0d b2bd
00000220: c110 28bd 6e48 203e b6c7 33bd 4708 8c3c
00000230: 3a7c c43d cac9 6fbe 0adf 68bd 7389 a53d
00000240: 07ba 813e 2d95 92bd 7807 82bd 2e75 7d3d
00000250: fedd 423c 2812 a0bb 80e2 383e 5d3b 853e
00000260: c15a b6bd ceeb c43d d5db f1bd 0141 04be
00000270: 1bea 323e 7bf1 c53d e9e9 91bc f815 02be
00000280: 3c2b bdbd 3318 c7bd d7c8 d83c 73f8 f33d
00000290: b7bd a93b 1986 24be f5b0 6abb addd 23be
000002a0: c77e 86be 0481 14be fe8b 83be acb6 123e
000002b0: ac58 c53d aa83 08bd b478 aa3d 87e9 a63d
000002c0: 3a4a bcbd a68d 093e 0056 99ba e5d1 94bd
000002d0: a4eb 063e b3d4 33be a550 74bd 5b5f 8a3e
000002e0: 697c 743d 7aa9 14be 488a 093f fbef 513e
000002f0: 2c3c 89bd 2a10 ba3e ec7c 683c 4feb 12be
00000300: 6fc4 543e 9cea b6bc 17cc a2be c208 763e
00000310: 3c19 54bd d8e1 e1be 211a 3fbe 1154 dcbb
00000320: 589d c8bd dfc3 2bbe 4223 c3bc b41c 3ebd
00000330: fd0c 8ebe ee6b cfbd b354 97bd 0d36 683c
00000340: c7e9 c3bd 7ba7 4fbd b852 ff3c f9c7 523c
00000350: d044 00bd 2113 0b3e 8053 de3d e967 fc3b
00000360: 59a6 19be bea6 90bd a63c 94be a621 67be
00000370: 5221 f7bc 10a8 c7bd 3d28 ed3d 1768 863e
00000380: 6105 87be 577e ddbd 9646 ea3d e4e9 fdbd
00000390: 0ee4 553d 609a 1e3d b402 06bd 374a b63d
000003a0: 9f44 34be 3067 e9bc 46a1 f6ba ba46 60be
000003b0: 15f7 08be fc90 013e ede6 c8bc e31f cfbb
000003c0: dab7 ff3d 240f e63d 99a5 6b3c 2fd4 433e
000003d0: f360 843e 8699 97bd 750d 473e 5d67 8e3d
000003e0: 1242 39be b319 9cba 64e5 76be 84b0 17be
000003f0: 103f d4bd 5297 793d 39c2 6b3d d3bf 08be
0.052522734 -0.09887305 -0.21969903 -0.010240939 -0.093280725 -0.13869101 0.1725167 -0.06881752
-0.08759173 -0.17925173 0.0030358562 0.17367268 0.021939347 0.062581524 0.2942294 0.020418834
-0.009892615 -0.06101359 0.10842499 0.14289996 0.11751764 0.029932551 0.051894385 0.19570637
-0.024985617 -0.113683395 -0.10110379 0.12717062 -0.058590773 0.071414575 0.021765957 -0.14778104
0.16772087 -0.0556548 -0.0824969 0.096581474 0.063393325 0.005949695 -0.17714706 0.20786838
0.030759545 -0.20635112 0.23522776 -0.006789609 -0.5486049 -0.11129186 -0.04755332 -0.0133316945
-0.09308863 -0.069243364 0.0030561942 0.08475461 0.15637963 -0.3469339 -0.024169527 0.012582159
-0.064652994 -0.030011013 -0.03420763 -0.054525793 0.21976963 0.059330594 -0.16152643 -0.06204427
0.024738595 -0.08164037 -0.053811744 0.09237765 -0.15250508 -0.037181254 0.1294182 -0.09810771
0.08663661 -0.083630845 -0.17037228 -0.034002617 0.22295043 -0.21493885 -0.16534156 0.3082047
-0.11314985 0.059275903 -0.045450024 -0.02650532 0.004110008 0.16566503 -0.075332366 -0.12017955
0.09423149 0.015902998 -0.13687111 -0.13796484 0.17184554 -0.18594544 0.106647685 0.064462654
-0.25942025 0.15497118 0.26154214 0.03109 -0.063465506 -0.16281149 0.14514065 -0.09718305
-0.32612467 0.3500507 -0.2073435 -0.42261708 -0.1212656 -0.22593957 -0.13080435 -0.14384058
-0.21205795 0.14968151 -0.17026709 -0.083036415 0.5181447 -0.098889835 0.054991156 0.0793791
-0.20019221 -0.13076958 -0.08628314 -0.19866025 -0.2766412 0.017925093 -0.04428085 0.032045294
0.13643281 0.013865286 -0.13493201 -0.068096526 0.05284176 0.057462893 0.052771654 -0.08694052
-0.041031603 0.1565263 -0.04389163 0.01709379 0.09594007 -0.2341682 -0.05685333 0.08082857
0.2533724 -0.07157359 -0.06349081 0.06187933 0.011893747 -0.004884977 0.18055153 0.26021853
-0.08904029 0.09615289 -0.11809508 -0.12915422 0.17472117 0.09665199 -0.017811732 -0.12703693
-0.09236762 -0.097214125 0.026462955 0.11912622 0.0051800865 -0.16066779 -0.003581104 -0.16002531
-0.26268598 -0.1450234 -0.25692743 0.14327496 0.096360534 -0.03332869 0.083238035 0.081500106
-0.09193845 0.13432941 -0.0011698604 -0.07266597 0.13175827 -0.17561607 -0.05964722 0.27025875
0.05968896 -0.14517775 0.53726625 0.20501702 -0.0670093 0.36340457 0.01418994 -0.14347576
0.20778058 -0.022328667 -0.31796333 0.24026778 -0.051781878 -0.44117618 -0.18662311 -0.0067238887
-0.09795636 -0.16773938 -0.023820523 -0.046414092 -0.27744284 -0.10128008 -0.07389202 0.014173043
-0.09566074 -0.05069683 0.031167373 0.01286506 -0.031315625 0.13581516 0.1085577 0.0077028167
-0.15004863 -0.070630535 -0.2895252 -0.2257143 -0.030167256 -0.09748852 0.115799405 0.2625129
-0.2637129 -0.10815113 0.114392444 -0.12398127 0.052219443 0.038721442 -0.03271742 0.08900874
-0.17604302 -0.028491586 -0.0018816374 -0.2190198 -0.13375504 0.12652963 -0.024524176 -0.00632094
0.12486239 0.112333566 0.014382743 0.1912391 0.25855216 -0.07402329 0.19438727 0.06953309
-0.1809161 -0.0011909514 -0.24110943 -0.14813429 -0.10363591 0.060935326 0.057558272 -0.13354425

conv3.bias f4 [32]
00000000: 9e94 9c3d ff70 bcbd 118c 983d afe0 9f3c
00000010: 661f fbbc 6f43 b6bd ad8e 4dbc 5cbd b23c
00000020: a542 003c dd72 cb3c 1db2 7d3d 442f 0a3e
00000030: 0667 cb3d e420 643d a0b5 33bd d01d 77bd
00000040: 62d9 9a3d 97e0 513d 81f3 65bd 55a0 4cbc
00000050: 8698 bb3d b9fa b4bd 78d8 d2bd cbaf 5d3d
00000060: 979e e93c 0a8f e2bd 6c0d ccbc ce82 a73c
00000070: 4823 bc3c 4e4e 063c d25c e3bd 4085 403d
0.07645534 -0.0920124 0.074485905 0.019516317 -0.03065462 -0.08899581 -0.012546224 0.02181881
0.007828389 0.024835045 0.06193744 0.13494593 0.099317595 0.05569543 -0.043874383 -0.060331166
0.07560994 0.051239576 -0.056140427 -0.012489398 0.09159951 -0.08836884 -0.102951944 0.054122727
0.028518004 -0.11062439 -0.024908744 0.020448115 0.022966042 0.00819738 -0.111016884 0.047002077

conv3_bn.weight f4 [32]
00000000: 8817 353f 3cdc 433f 14f1 213f 95f2 5e3f
00000010: c238 563f 648b 173f d557 443f c871 483f
00000020: 5a41 843f 6da6 2c3f 0302 063f 1fe7 283f
00000030: df87 283f 8c6b 333f 834d 2a3f c5e5 273f
00000040: 6890 583f bfdb 173f 97d5 653f 2698 233f
00000050: 2284 0c3f 8ac5 403f 24c2 403f 5213 713f
00000060: 4817 153f 131f 2d3f f862 3e3f 4bf5 4f3f
00000070: a54a 5b3f fd01 783f b8ff 1e3f 5e87 493f
0.7073903 0.76507926 0.6325848 0.870889 0.83680356 0.5919707 0.7669652 0.78298616
1.0332444 0.67441446 0.5234682 0.6597766 0.6583232 0.7008598 0.66524523 0.65584975
0.84595346 0.5931968 0.8977904 0.63904035 0.5488912 0.7530142 0.75296235 0.94170105
0.5823865 0.6762554 0.74369764 0.8123366 0.85660774 0.96878034 0.62108946 0.7872218

conv3_bn.bias f4 [32]
00000000: be48 05bf 3eca 66be 0d70 5dbc b59b 7bbe
00000010: 2bdb 8fbe 4766 b43c fee5 24be 4024 b8be
00000020: 8785 aebe a8f2 9fbd 4885 19bd 25d0 86be
00000030: fe55 1bbd cd5b 8abe 4236 93be bdc9 00be
00000040: 5b12 d5be ae90 97bd d9ff 5dbd 7ad1 5cbe
00000050: e0e3 4bbe 69f2 61be 3cff 0d3e dc81 d3be
00000060: a4d2 96be b31c 983d 0822 d13d 4a19 15bd
00000070: fa19 83be b489 abbd 3f18 9a3d 8739 bcbe
-0.5206412 -0.22538087 -0.0135154845 -0.24571116 -0.280969 0.022021426 -0.1610336 -0.35965157
-0.34086248 -0.07809955 -0.037480623 -0.26330677 -0.037923805 -0.27023163 -0.28752333 -0.12576957
-0.41615567 -0.07400642 -0.054199073 -0.21564284 -0.19911146 -0.22065128 0.13866895 -0.41310012
-0.2945758 0.07427349 0.10211569 -0.03640107 -0.25605756 -0.08375874 0.07524156 -0.3676264

conv3_bn.running_mean f4 [32]
00000000: ca5b 3abf a72d cfbf da40 f7bf 4f8d 213f
00000010: 972d b8bf 89d4 963e 019e afbe 9b42 1fbf
00000020: 149f eebf d054 41be 5b8a b23d 145d 533f
00000030: 20a8 0cc0 7340 41bf 37d9 c9be c6c6 16be
00000040: 706a 47bf 64c9 d33b f10f f5bf bf36 1ebf
00000050: a58f fbbf a5ca eb3e ca58 6bbf a731 e4bf
00000060: d0d6 c73f 681f b23e 9722 d2bf 9a96 84bf
00000070: 45a4 87bf 0d65 6cc0 a693 2bbf d0c5 a2bf
-0.7279631 -1.6185807 -1.9316666 0.63106245 -1.4388913 0.29459026 -0.34300235 -0.62211007
-1.8642297 -0.1888001 0.087177955 0.825639 -2.1977615 -0.75488967 -0.39423534 -0.14724264
-0.77896786 0.0064632166 -1.914549 -0.61802286 -1.9653212 0.46053043 -0.91932356 -1.7827653
1.561243 0.34789586 -1.6416806 -1.035846 -1.0597006 -3.6936677 -0.6702217 -1.2716618

conv3_bn.running_var f4 [32]
00000000: a18c d33e 7fff f63e daa4 063f 4192 2b3f
00000010: d0b2 1a3f e420 133f adad b83e 5f3c cf3e
00000020: f6ce 5a3f 2359 093f 5c46 133f b8b3 b93e
00000030: ea3b 493f c17c 063f fcfd 383f 9d42 f23e
00000040: a9fb d03e 9538 a73e 7750 193f a6b8 0c3f
00000050: 2c1e b03e 07fe e53e c860 3e3f 2064 0b3f
00000060: 4db9 cd3e 13f7 033f f371 183f 64dc ad3e
00000070: bd42 c43e 8af5 4f3f a138 ba3e 1558 5e3f
0.4131823 0.48241803 0.52595294 0.6702004 0.60429096 0.5747206 0.36070004 0.40475747
0.8547205 0.53651637 0.57529235 0.36269927 0.78607047 0.5253411 0.7226255 0.47316447
0.40817 0.32660356 0.59888405 0.5496925 0.3439802 0.4492037 0.74366426 0.54449654
0.40180436 0.5154888 0.5954887 0.33957207 0.38332167 0.8123404 0.3637133 0.8685315

fc1.weight f4 [64, 128]
00000000: 0e6e cebd 2c07 7a3b 9c8b 4abd 0798 82be
00000010: a174 acbd 5500 173e 1e4e 2b3e 7130 e43d
00000020: fb0f 3c3e 2dd3 1f3c cea0 fd3d 6ede 863d
00000030: 7e49 0ebe 99ef 94bd b235 63be e489 e0be
00000040: cd0e 42be 4e38 0dbe dd51 203e 528b 023e
00000050: 9361 dc3d d498 9d3e b377 00bf d4b6 a1be
00000060: 719d a63e ff79 7f3e ce94 cebc c148 f3bb
00000070: bc3f 423e abee 4f3e 5de5 b8bd 77e9 64be
00000080: 10e4 27be 8e68 5abc fec1 1ebe af0f f03c
00000090: 80b3 9a3e 72c3 013e 3800 49be 11e9 08bd
000000a0: f328 973e 57b4 393d d0ac 53bd 468f a6bd
000000b0: d260 00be 23c5 15be 1911 62be 7b6c d0be
000000c0: fe54 a6be 0ad0 a7be 3552 32be d180 90be
000000d0: 9a91 80be 8a6a 0fbd 7209 1fbe 4c3a 47be
000000e0: fda4 29be ba09 9cbe a644 f3bd b0a2 8dbd
000000f0: 7037 47bd e198 7e3d 41e1 d33d 66c7 003e
00000100: cda8 d739 ffcd 6e3d 31cd b3be cd3b 4fbe
00000110: b209 82be 7012 b2bd a2dd c0be 51ba cfbe
00000120: c8be 10bd 51d6 f6bc 197c 4cbd 4d20 c6bd
00000130: 3cf3 eabd 771a 53bc 042d ccbd 440b 013e
00000140: ff72 a9bc bf23 33be a8f3 bc3d ea97 593e
00000150: 7d41 213e 168e 2d3e a513 283e b536 6f3e
00000160: a690 d53d 15fd 113e 2e8f fbbd a426 4fbe
00000170: 62ae 89bd 090a ecbd 478a a93e 5c97 863e
00000180: 8921 c83d d218 1cbe 6345 d4be 73f9 98be
00000190: 47f7 6f3c 316e d7bd ffde d4bd b43a a5bd
000001a0: 6714 ca3e 234b c43e e29c 753e 0d3e bf3d
000001b0: 5dc4 c03e 42bb b73e e1f6 93be bae2 a4be
000001c0: 942f 49be 9a5e debc 0cdb abbe 2afe 11be
000001d0: a0af 05be 3b9d debd 0489 7fbc d741 1e3d
000001e0: 8b2c 913e 900d 083d 4ddc 63bd a666 14be
000001f0: b6a3 afbd c46a 92be 77e3 c8bd 596f f53c
00000200: edc0 1cbe 8188 0fbe 746c e6bd d3d8 5bbe
00000210: 31f3 37bc eb76 8dbd 4097 bf3e 65ca d4bd
00000220: ca97 913c eb44 993e 4541 17bd cfe6 1c3e
00000230: 9f5b 55be 035d 07bf bc13 913e 6b7a 8d3e
00000240: fdb6 4abd b90d 33be b9f7 85bd b2f5 023d
00000250: 9f51 dcbd 7bc5 34be d569 a7be 6c1e 6cbe
00000260: 6b22 1ebe 1fda 2bbe ae8a 2fbe 7ab3 84be
00000270: ee87 7e3d 798e 21bc eadb 9c3c 0c29 23bd
00000280: 992e c13e 31c2 6d3e c9f1 e03d ce38 bebc
00000290: 3f27 a13e e60f 193e 8e56 1f3e 5f13 1b3e
000002a0: ad38 153d 751b 77be 60a9 4cbd 13b8 e9bd
000002b0: 5bc4 b2bd 66cd dbbe ed11 4cbd 0acf 66be
000002c0: 41d1 94be 9e75 9ebe f4e9 093e bf0e febc
000002d0: aad6 69be aa05 b2be acfa 83bd a8ee d0bd
000002e0: ac4c 893e affb 81be f17d d5bd 5ebb e0bd
000002f0: f224 1f3d f637 dc3d 006e b33d e162 9cbc
00000300: 57cb 833c 4c85 79be 9cef 5ebe 041c 86be
00000310: 3735 b53d fb64 353e 455e 2c3e 0598 ddbd
00000320: d8c9 883d 27d2 d8bc f120 d1be f7db bc3d
00000330: 6f87 9b3e c553 7fbe 6fde 763e dcb8 3d3e
00000340: 26ea 6dbe 7022 123b bed3 c6bd aaf8 83be
00000350: acff 243e 8950 d1bd d697 28bd f616 d23d
00000360: 24eb fd3d 6591 06bd 8735 4abe 6caa 973d
00000370: 119f 9f3d f2fb 1e3e 9614 24be 5749 92bd
00000380: 2ac7 463d a7b5 a8be 5d65 a13d 7857 f13b
00000390: 1d8e b8bd a9b2 92be ae2c 9d3e e508 c63d
000003a0: 9a10 36be d6f7 4d3e b874 86bc 4177 993e
000003b0: a4c9 36bd dc59 283e b645 7f3d da98 df3c
000003c0: ef4b 9fbc c3f5 8d3d 6bdf c1bd 9db3 3f3e
000003d0: a74c 043e 68c5 303d 97e6 0bbe a2f2 c73d
000003e0: 8540 963d af56 6c3b 62ca c03d 4ac0 de3d
000003f0: 723f d83e 67dc 7c3e 5363 debe 52b6 98be
-0.10079585 0.0038151247 -0.049449548 -0.25506613 -0.08420683 0.1474622 0.16729018 0.11142052
0.18365471 0.009754938 0.12384187 0.06585394 -0.13895223 -0.07272262 -0.22188452 -0.43855202
-0.18950959 -0.1379101 0.15656228 0.12748459 0.10760798 0.3078066 -0.50182647 -0.315848
0.32541993 0.24948882 -0.02521744 -0.0074244444 0.18969625 0.20305888 -0.090281226 -0.22354685
-0.16395593 -0.013330592 -0.1550369 0.029304354 0.30215073 0.12672213 -0.1962899 -0.033425394
0.2952343 0.045338 -0.05167848 -0.08132796 -0.12536934 -0.14625983 -0.22076835 -0.40707764
-0.3248672 -0.3277591 -0.17414172 -0.2822328 -0.25111085 -0.035013713 -0.15530947 -0.19455832
-0.16566844 -0.3047617 -0.11878328 -0.06915796 -0.048636854 0.062157515 0.10345698 0.12576064
0.00041133762 0.058301922 -0.35117486 -0.20237656 -0.25398022 -0.08694923 -0.37669092 -0.40571836
-0.035338193 -0.03013149 -0.049923036 -0.0967413 -0.114721745 -0.012884728 -0.099695235 0.12601954
-0.020684717 -0.17494105 0.09226161 0.21249357 0.15747638 0.16948733 0.16413744 0.23360713
0.1042798 0.142567 -0.12283169 -0.20229584 -0.06722714 -0.115253516 0.3311331 0.26287353
0.09772021 -0.15243843 -0.41459188 -0.29877815 0.014646358 -0.10519064 -0.10394096 -0.08067837
0.3946869 0.38338575 0.23985627 0.09338007 0.37649813 0.35885054 -0.2889929 -0.3220423
-0.19647056 -0.027144719 -0.33565557 -0.14257112 -0.13055277 -0.10869833 -0.015596632 0.03863701
0.28354296 0.03321606 -0.055630017 -0.14492282 -0.08576147 -0.2859708 -0.098090105 0.029960321
-0.1530797 -0.14016916 -0.112511545 -0.2146943 -0.011227415 -0.069074474 0.37420082 -0.10390166
0.017772574 0.29935393 -0.03692748 0.15322421 -0.20835732 -0.528763 0.2833537 0.2763246
-0.049490917 -0.17485704 -0.0654139 0.031972595 -0.107577555 -0.17653458 -0.3269793 -0.2305848
-0.15442817 -0.16782425 -0.17142746 -0.2591818 0.06214135 -0.009860628 0.019147832 -0.039834067
0.37730864 0.2321861 0.10983617 -0.023220446 0.31475255 0.14947471 0.15560362 0.15144108
0.036431003 -0.24131568 -0.049966216 -0.114120625 -0.08728858 -0.42930144 -0.049821783 -0.22539917
-0.29065898 -0.3094911 0.13468152 -0.03101289 -0.22835794 -0.34769946 -0.06444296 -0.1020177
0.26816308 -0.25387332 -0.10424412 -0.109732375 0.038853593 0.10752861 0.08761215 -0.019090118
0.01608817 -0.24367255 -0.21771091 -0.2619325 0.088480406 0.17714302 0.16832836 -0.10820011
0.06679124 -0.026467396 -0.40845445 0.092216425 0.30376765 -0.249343 0.24108289 0.1852755
-0.23233852 0.0022298358 -0.09708355 -0.25775653 0.16113156 -0.10220439 -0.041160427 0.10258286
0.12398365 -0.032853503 -0.19746982 0.07405552 0.077940114 0.15525797 -0.16023478 -0.07142895
0.04852978 -0.3295109 0.07880662 0.0073651634 -0.09011481 -0.28651932 0.3069815 0.09669665
-0.1777977 0.20114073 -0.016413078 0.29973796 -0.044625893 0.16440529 0.06232234 0.027294565
-0.019445388 0.06931641 -0.09466442 0.18720861 0.12919866 0.04315701 -0.13662182 0.097630754
0.07336525 0.003606241 0.094136015 0.1087652 0.42235905 0.24693452 -0.43435153 -0.298266

fc1.bias f4 [64]
00000000: 83ab 9e3d 149b 4f3d 9710 d8bd 3087 2bbd
00000010: f4d4 a6bc 391b 8e3e ec73 9c3e 4f1a 243d
00000020: 4916 20bd 4eb6 78bd 5143 7bbb c1d9 a43e
00000030: 1898 ba3d 7a36 873d 294a e03d 1656 b73e
00000040: 6100 d53d 5b56 053e 50ad bf3e 580a fe3d
00000050: 2c85 4d3e d12e 443b 45b8 88bd ab7b 603e
00000060: 3140 4bbd 6af7 243e b209 ce3d 1234 993d
00000070: b3d3 c33c 4f48 8bbd bbf7 bbbd da7a 0abd
00000080: d295 0c3e 26de 023e ad30 b3bc a10c 023e
00000090: 979c 5dbd 7053 873e e8ce b33d 727e e9bc
000000a0: 7806 11bd 9530 f53c e9a0 dabd 6341 e53c
000000b0: e806 dc3c 705d 503e 73c3 443e 1140 8a3e
000000c0: 46e2 133e d3ba cd3d 54db bd3c ea16 033d
000000d0: 21ef 97bd 7a02 1cbd 2648 943b 78d1 a53c
000000e0: 7d4d 053e 01de 353e 0070 17bc c54b 313e
000000f0: 37d1 123e 80d9 a6bd 025d 64bd 419f 7cbb
0.07747557 0.050685003 -0.10550039 -0.04187697 -0.020365216 0.27755144 0.3055719 0.040064152
-0.039083753 -0.060720734 -0.0038339684 0.32197383 0.09111041 0.066021875 0.10951645 0.35807866
0.10400463 0.13021223 0.37436914 0.12404317 0.20070332 0.0029935131 -0.066757716 0.21922176
-0.049621765 0.16110006 0.10060443 0.07480635 0.023904657 -0.06800901 -0.0917811 -0.033808567
0.13729027 0.12780055 -0.021873796 0.1270013 -0.054104414 0.26430845 0.087796986 -0.028502677
-0.03540656 0.029930392 -0.106752224 0.02798528 0.026858762 0.20348144 0.19215183 0.27002004
0.14441785 0.100453995 0.023175873 0.032004274 -0.07418657 -0.0380883 0.0045252023 0.020241484
0.1301784 0.17760469 -0.0092430115 0.1731406 0.14337622 -0.081469536 -0.05575276 -0.003854707

fc2.weight f4 [10, 64]
00000000: f606 79be b209 48be 46d3 e0bc c748 42be
00000010: 571e e4bd 8fec 7cbe 1102 2ebd 32de 6b3e
00000020: 284e c3bd 6c69 54bc 3d7e a9bc d92a 9a3d
00000030: 9e5d 213e 3f83 493e 57d1 de3e be68 d0be
00000040: 66b6 903d 21e6 663e 9b76 d3bd 6d87 94be
00000050: 9824 da3b 7a39 243e c74f a03c 3fa0 babe
00000060: 2664 a3bd 6a3c b6bc f874 5a3e b375 8c3e
00000070: 0d5b b2bd e554 8ebd 1f11 bdbe 3c80 8e3e
00000080: a5d0 4c3e b0b1 6ebe 579e c8be 93a2 cfbe
00000090: fedc f4bc ba05 e23d 5250 233e a051 233c
000000a0: 0e32 d9be 33c2 0fbe 0666 d3bc 87c1 fc3c
000000b0: 3b96 803e 341f 86be ce41 283e 9ec3 933b
000000c0: 9614 6ebe 1764 eb3d 4dec 63be 919a 803e
000000d0: bf84 073d 7e68 793e a020 7ebe e085 d9be
000000e0: 7864 453e 06d6 4a3e ab2a 9bbe 9cab 353e
000000f0: 7275 e33d 5bdb 77be 9b10 6a3c 5dc5 a93b
00000100: 7222 fcbe 1dc6 8ebd 48b3 0d3e 43fb b0bc
00000110: a3bf 07bc 27a2 5ebe 086a 6a3c 685f f83c
00000120: 967c 463d d53f 27bd 91e6 b2bd 7a59 b1bc
00000130: 864c 4a3d 6185 163e 7dc0 45be b687 1cbe
00000140: fd8a 2d3f 49e5 c6be b8ea 26be c6d4 183e
00000150: 3e6a a83c 1966 f33e ba75 b1be 0ca3 81be
00000160: 1e4d 8d3d 4a87 31be 06a7 1c3e c6c7 08be
00000170: ae22 373e dfd9 c93d 2076 993e 5109 613e
00000180: f8ca dabe 05eb 38bd 057a ccbe 2267 cebe
00000190: 7b8e bdbe 778a 743d 1fae 683d 17cb 82be
000001a0: 99bb 99be acbc f13e 88d1 aabd 4e94 8cbe
000001b0: 3488 823e 72fd 813e 3a42 393e 33a2 0fbf
000001c0: aa7d a5be aae8 5d3e 820c 8cbd 12c0 a8be
000001d0: 35aa 24bb a5d4 1dbf 9a4e 2d3e c7ae 4c3e
000001e0: 1ca2 883e 66a6 96be de1a a1be d390 17bf
000001f0: 22cf 0c3d 7df0 9e3e 87b9 273e 000c 463e
00000200: 8dd7 26be 2f8f a6be ebe9 bd3d e0a7 0abe
00000210: 0726 9d3c 1791 e5bd 0b64 6bbe 357b 5dbc
00000220: 0710 f1bd 2eae a7bd 8a75 233d 69d4 3abe
00000230: e01b 41bb c9b8 1abe 6c46 43be 2295 c7be
00000240: c499 22bf ff2f d93e 6274 6cbe 5e28 92be
00000250: fd2f b7be 8067 1e3e 9ee0 913e 4615 9a3e
00000260: 75be d33d 8799 d03d 718e a4be c572 f53e
00000270: acae 3b3d b347 bfbb feec 0f3d ca8b f73d
00000280: 3e0c 1e3e ea32 c43e 6161 f83d 3b5a 84be
00000290: 5c23 503e 986b c63b 9576 9b3d a208 d93d
000002a0: cdc7 4cbe a430 b6bd ab7a 3d3d 6974 c83d
000002b0: ce2d 183d 7535 f13d 451a 813e 29c8 7abe
000002c0: 9369 89be 4a63 8ebe e682 a3bd 8464 02be
000002d0: b26d 22bd 99a1 ee3e 9281 873d a939 8f3d
000002e0: f6c7 bcbe 0ffb dabd d9d1 863e dd65 973e
000002f0: 5575 53be b2c4 9bbd c960 fd3c 8151 78be
00000300: 9126 73be bfc3 79be b840 313e 505e 9e3c
00000310: db01 27bd 0f94 463e d865 1d3d 604b 283e
00000320: 3fda b1bd 62bb 00bd e5e9 a0bd 3535 abbd
00000330: d2bf 81be 21e7 fabd 6b0d d03a 48ee d93d
00000340: d4b4 a5be 2f36 0abe cfdb f33d 86c9 993e
00000350: 30d9 5dbe 2dde 323d 7be8 f5bd 8dcf 653b
00000360: 615e 8dbd 8ba2 273e 414e 19bc c859 bdbe
00000370: a228 29be 4371 0b3d e7bb 08be baf6 8dbe
00000380: 084a 1d3e 4963 98bd 71f0 293d 2dfb db3d
00000390: 2e4b 803e 345e a13e 9d20 063e cbd6 2fbe
000003a0: 555e 513e 2574 8dbe 1ac6 0b3d b895 fa3d
000003b0: 7976 3abe ecf7 c4be 1413 88be cebc 773e
000003c0: cb23 833d 511a 52be 1355 713e ed4c 85be
000003d0: 6d31 1f3d 8772 6fbe deb2 b9bd 4fe0 71ba
000003e0: 5844 43bd bfb5 c93d 6f3e 68be 7ff3 de3d
000003f0: 7217 98be 3418 33bd b233 56be 5c20 3dbe
-0.24319062 -0.19534948 -0.027444493 -0.18973075 -0.11138599 -0.24699615 -0.04248244 0.2303398
-0.095363915 -0.012964588 -0.020690078 0.07527704 0.15758368 0.19678973 0.4351909 -0.40704912
0.0706604 0.22548725 -0.103253566 -0.29009572 0.0066571943 0.1603755 0.01956929 -0.36450383
-0.07978086 -0.022245605 0.21333683 0.27433547 -0.08708773 -0.06949786 -0.36927125 0.2783221
0.20001467 -0.2330997 -0.39183304 -0.40553722 -0.029890534 0.110362485 0.15948609 0.009968191
-0.42421 -0.14038925 -0.025805485 0.030854 0.25114617 -0.2619568 0.16431352 0.0045094034
-0.2325004 0.114937 -0.2225811 0.25117925 0.03308558 0.24356267 -0.24817133 -0.4248495
0.19276607 0.19808206 -0.3030599 0.17741245 0.11106385 -0.24204771 0.014286186 0.0051809982
-0.4924503 -0.06971381 0.13837922 -0.021604186 -0.008285436 -0.21741544 0.014307506 0.03031893
0.04845866 -0.04083236 -0.08735383 -0.021649111 0.049389385 0.14699318 -0.1931171 -0.15286145
0.67790204 -0.38846806 -0.16300476 0.14924917 0.020558473 0.47538832 -0.3466013 -0.25319707
0.068994746 -0.17336765 0.1529809 -0.13357458 0.17884323 0.09856009 0.29972935 0.2197621
-0.42732978 -0.045146007 -0.39936844 -0.4031306 -0.37022766 0.059702363 0.05680668 -0.2554557
-0.30025938 0.47214258 -0.08340746 -0.27456897 0.2549454 0.25388676 0.1809167 -0.5610687
-0.32322437 0.21670786 -0.06838323 -0.32959038 -0.0025125865 -0.61652595 0.16924515 0.19988547
0.2668618 -0.29423827 -0.3146581 -0.5920536 0.034377225 0.31042853 0.16379367 0.19340515
-0.16293164 -0.32531115 0.09273132 -0.13540602 0.019183172 -0.11209314 -0.22987382 -0.013518144
-0.11770635 -0.08187519 0.039907016 -0.1824509 -0.0029466078 -0.15109552 -0.19069833 -0.38980967
-0.6351588 0.4241943 -0.23091272 -0.28546423 -0.357788 0.1546917 0.28491682 0.30094355
0.10339061 0.10185533 -0.32139924 0.47939125 0.045820877 -0.0058374046 0.035138123 0.120872095
0.15434358 0.38320094 0.121279486 -0.2585009 0.20325989 0.0060553066 0.07590977 0.1059735
-0.19998093 -0.08895996 0.046259563 0.097878285 0.037153058 0.11777774 0.25215355 -0.24490418
-0.2683836 -0.27810127 -0.07983951 -0.12733656 -0.039655395 0.46607664 0.066165105 0.0699342
-0.36871308 -0.10692417 0.26331976 0.29569903 -0.20650227 -0.07605876 0.03092994 -0.24249841
-0.2374518 -0.24391077 0.17309844 0.019332081 -0.040773254 0.19392417 0.038427204 0.16435003
-0.08684205 -0.031428702 -0.07857112 -0.08359758 -0.2534166 -0.122511156 0.001587314 0.10641152
-0.32364523 -0.13497232 0.119071595 0.30036563 -0.21664882 0.043668915 -0.12007233 0.0035066337
-0.06902767 0.16370599 -0.009357036 -0.3698256 -0.16519406 0.03404356 -0.13352929 -0.277273
0.15360272 -0.07440812 0.04148907 0.10741267 0.25057358 0.31517184 0.13098378 -0.17171781
0.20446141 -0.27627674 0.03412447 0.12235588 -0.18209256 -0.384704 -0.26577055 0.24193117
0.06403311 -0.20517851 0.2356761 -0.26035252 0.038865495 -0.23383532 -0.09067319 -0.0009226845
-0.0476726 0.098491184 -0.22680067 0.10886287 -0.29705387 -0.043724254 -0.20918158 -0.18469375

fc2.bias f4 [10]
00000000: 707d 2c3d 37ad 8ebe 995f 22be 4818 7ebb
00000010: 5b39 503d 7815 2c3e 204e 12bd 33eb 26bd
00000020: 4046 81bc 6487 14bb
0.042111814 -0.27866527 -0.1585678 -0.0038771797 0.05083595 0.16805065 -0.035719037 -0.040751647
-0.015780568 -0.0022663707
